chapter_06/checkpoints/checkpoint_356.pth (torch_old, 19970 bytes, 7 tensors)

input_layer.weight f4 [64, 4]
000000 0e 17 8b 3d 48 c4 eb 3d 5e be 8b bd 41 8b f0 bc
       0.06791507 0.11512047 -0.06823419 -0.029363276
000010 a9 68 42 3f 07 56 2e 3f c3 48 53 c0 2c 69 77 bf
       0.7594095 0.6810002 -3.301316 -0.96644855
000020 87 b6 96 bf 4a fe 29 3e 0b 54 75 3e eb f7 83 3d
       -1.1774453 0.1660091 0.23957841 0.06443771
000030 f8 4a cf bf d4 7b 65 bf ab 55 36 be 0c 61 a7 3d
       -1.6194754 -0.8964207 -0.17806117 0.08172807
000040 04 4b c3 be 5e a0 a7 3e b8 7d f1 bd 80 58 24 3e
       -0.3814317 0.32739538 -0.11791557 0.16049385
000050 98 d5 3c 3f e3 eb 2f 3f e5 59 41 40 2b 32 83 3f
       0.7376342 0.6871931 3.0211117 1.0249685
000060 ae 19 20 3c ec 69 8f 3e a9 42 2f 40 66 88 2a 3f
       0.0097717475 0.280105 2.7384436 0.6661438
000070 cc c7 0c bf ed 70 28 bf 5e 41 18 3f cd ec a7 3e
       -0.54992366 -0.6579731 0.5947474 0.32797852
000080 d5 66 2b bf be d6 f5 3e c7 ab 85 3f 89 ba 84 be
       -0.66953784 0.48015398 1.0443047 -0.25923565
000090 c1 bc ac bf c5 cf 06 bf 8f 21 66 be 0c db 7f 3d
       -1.3495103 -0.5266078 -0.22473739 0.06246476
0000a0 13 11 17 3f a2 29 39 bf 8d 89 9d bf 63 11 44 3f
       0.5901043 -0.7232915 -1.2307602 0.7658903
0000b0 f7 aa 16 3e 6f 2c 47 be b6 51 c2 bf 6b 63 d9 3e
       0.14713655 -0.19450544 -1.5181186 0.42458662
0000c0 5f 18 a0 be b7 80 c0 3d fd 69 9e 3f 93 eb ee 3e
       -0.31268594 0.093995504 1.2376095 0.46664104
0000d0 4a 37 ef be 94 ea a7 3f 5a c6 33 3f 7a 49 ba be
       -0.4672187 1.3118463 0.70224535 -0.36384183
0000e0 b5 e4 ef 3d ae 78 d0 3d 16 fe e4 bf b2 aa a3 be
       0.11713544 0.10179268 -1.7890041 -0.31966168
0000f0 fa 52 55 bf 74 01 35 3f a0 97 4a 3b ef bc aa be
       -0.8332974 0.7070534 0.003091313 -0.3334727
000100 98 3f 1a bb 77 c1 5e be 3e 13 6b be 0f 1a 91 be
       -0.002353644 -0.21753488 -0.22956559 -0.28340194
000110 38 6d 9f bf 72 af 19 be b2 6f a8 3f 2a 83 ee bd
       -1.2455206 -0.15008333 1.3159087 -0.11646111
000120 af 33 86 bf e9 18 8f bf 14 39 86 bf cc c4 33 bf
       -1.0484523 -1.1179477 -1.0486169 -0.70222163
000130 b2 c3 be be 41 61 05 bf dd cb c6 3f 01 3f 3a 3f
       -0.3725868 -0.5210152 1.5530964 0.72752386
000140 ec 6a 4c 3f ba 4b d8 be 5e 08 9c 3d ee af 28 be
       0.7985065 -0.42245275 0.076187834 -0.16473362
000150 5a e3 83 bf 1c f8 61 bf f3 68 00 c0 63 02 3a bf
       -1.0303757 -0.8826921 -2.0064056 -0.7265989
000160 93 f8 7a 3e f0 7c 0c 3f 85 4b 00 40 e9 54 ce 3e
       0.24508886 0.5487814 2.0046093 0.40299156
000170 f3 1c e5 3e b7 8c 66 3f af 7d 0a 40 df 4a 28 3f
       0.4474865 0.90058464 2.163921 0.65739244
000180 5a ba a9 be 6d 70 54 3e 69 eb 90 3f e7 28 c3 3e
       -0.33149987 0.20746012 1.1321841 0.38117144
000190 62 0a c3 3e e8 81 c8 be 20 21 31 3d 5e 24 90 be
       0.3809386 -0.3916161 0.04324448 -0.28152746
0001a0 ea 19 99 bf ef b2 db be d7 03 23 3f ab 47 10 3f
       -1.1961033 -0.42909953 0.63677734 0.56359357
0001b0 e9 eb 63 3f 16 7d a6 be 0c 48 bc be f8 a3 a0 be
       0.89031845 -0.32517308 -0.36773717 -0.31375098
0001c0 34 1e db 3e ea 07 c4 3f 87 8c 8c bf a9 bb 1d 3e
       0.4279648 1.5314915 -1.0980386 0.15403618
0001d0 c7 96 b4 bf 20 37 71 be 93 5e 3b 3f da 5b 06 3f
       -1.4108514 -0.23556185 0.73191184 0.52483904
0001e0 b3 fc 02 bf d3 bf a3 3e fe ab 85 3f cd b6 c1 be
       -0.5116684 0.31982288 1.0443113 -0.37834778
0001f0 04 f6 31 3e 19 fe 76 bd 69 c9 44 40 ef 6f 09 3f
       0.17379004 -0.06030092 3.074793 0.5368642
000200 b6 a1 a6 3f 92 7f 2b 40 32 45 07 40 a4 b4 e6 3f
       1.30181 2.6796613 2.1135983 1.8023877
000210 52 d6 10 3f 52 13 5b be 68 35 a3 bf bc 81 19 bf
       0.56577027 -0.21394089 -1.2750673 -0.59963584
000220 0d 38 49 bf 13 59 82 3d d3 6c c6 be 03 c3 74 be
       -0.7860115 0.06364646 -0.387549 -0.23902516
000230 c5 02 01 bf 67 66 20 3e 60 1d 20 40 59 23 f2 3e
       -0.5039485 0.15664063 2.501793 0.47292593
000240 a2 c7 73 bf 37 80 17 bf 75 79 ec be b9 ed 41 3d
       -0.9522649 -0.59180015 -0.46186414 0.04734585
000250 9c 87 80 be 1d e9 3e bf 7e 95 23 c0 1f f4 0d bf
       -0.25103462 -0.7457445 -2.5559993 -0.55450624
000260 f4 6f 50 3e 7e 63 86 3e e0 13 ee 3f 63 99 57 3e
       0.20355207 0.26247782 1.8599815 0.21054606
000270 71 16 c5 be e8 12 d2 bd 33 bd 07 bf 21 7f 02 3e
       -0.38493684 -0.10257512 -0.5302307 0.12743808
000280 df 2c e3 3d 37 ca f1 3e 95 1e d5 3f 7c 26 a9 3e
       0.11092543 0.4722459 1.6649958 0.33037174
000290 96 f6 3a 3e 48 8a c2 3e 31 65 09 40 f7 8b 9a 3e
       0.18258128 0.37996125 2.1468012 0.3018491
0002a0 5b f9 22 bf bd 77 4b 3f 49 6b 27 3f d0 86 95 be
       -0.63661736 0.7947958 0.6539808 -0.29204416
0002b0 f0 20 1f c0 cf 78 df bf bd 3f 45 c0 f8 ce c1 bf
       -2.4863853 -1.7458743 -3.0820153 -1.5141287
0002c0 20 86 8c bf e4 54 5d bf 1f 4a b4 be c6 44 13 bf
       -1.0978432 -0.8645766 -0.352128 -0.57526815
0002d0 54 00 56 bf d7 33 22 3e 96 b2 ba 3e a3 7b 69 bf
       -0.8359425 0.15840088 0.36464375 -0.9120428
0002e0 f7 c3 ac bf 62 dd 0a bf 2b ab 5b be 74 f8 48 3e
       -1.3497304 -0.54244053 -0.21452014 0.19626027
0002f0 8c 63 0e bf 1d c3 ef be 1a 64 cf bf c8 ef cf be
       -0.55620646 -0.46828547 -1.6202424 -0.40612626
000300 3f 00 d2 3f d1 f6 87 3f 77 5e 0f be fe 69 2b 3f
       1.6406325 1.0622197 -0.14000879 0.66958606
000310 c6 ad d4 3d 59 65 34 be 25 da 5e 3f 12 42 02 bd
       0.10384707 -0.17616786 0.8705161 -0.03180129
000320 5e ce 12 3e ad 0a 5d 3e b6 c4 06 3f a5 85 f5 be
       0.14336535 0.21586104 0.5264391 -0.47953525
000330 de 96 4e bf b0 45 72 bf 4d f3 22 c0 b7 5f 3d bf
       -0.80698955 -0.94637585 -2.5461 -0.73974174
000340 e5 da 9c 3f dd 98 dd 3e 2e 69 4a bf 10 da c4 bd
       1.2254301 0.43280688 -0.7906674 -0.096119046
000350 57 b1 69 be 84 c3 21 bf 01 82 40 bd ee 41 34 be
       -0.22821556 -0.6318896 -0.04699898 -0.17603275
000360 09 00 04 3e b2 35 90 bf cf 5b b2 bf f1 d7 96 3e
       0.12890638 -1.1266387 -1.3934268 0.29461625
000370 9a 0a ac bf 60 38 6d bf 5c 83 16 3f 32 d2 fc bd
       -1.3440735 -0.92664146 0.5879419 -0.12344779
000380 97 fe 28 3f d0 d2 14 bf 6b ff b5 bf 69 fe f4 be
       0.66013473 -0.58134174 -1.4218572 -0.4785035
000390 1d bb 3b bf 45 a9 39 be 84 22 e9 be 7c f5 f4 bd
       -0.7333239 -0.18130977 -0.45534146 -0.11960885
0003a0 c2 16 c8 be 9f e0 01 bf c2 eb 20 c0 80 96 d4 be
       -0.39079863 -0.5073337 -2.5143895 -0.41521072
0003b0 94 2d ef 3d f9 ae 6e 3f dd b2 0b be 9f 21 26 3f
       0.11678615 0.9323574 -0.1364245 0.6489505
0003c0 5c ee 88 3e 98 ee c0 bd 8e c0 b0 be 60 74 a4 3c
       0.26744354 -0.09420508 -0.34521908 0.020075023
0003d0 0a 97 e6 3f 30 b1 2d 3f 43 d6 8d be d1 2d e0 3e
       1.8014843 0.6784849 -0.2770253 0.43784955
0003e0 5c 06 1e be 85 5b 90 3f 49 5b 8d 3f f0 7b c2 bd
       -0.15432113 1.127793 1.1043483 -0.094962955
0003f0 2b 94 18 be 7f b4 0f bf 1d 34 40 3f 52 41 f4 3e
       -0.14900272 -0.5613479 0.7507952 0.47706085

input_layer.bias f4 [64]
000000 92 93 c5 3e 23 7b 02 bf 3f 56 6f 3f 6f 65 9c 3f
       0.3858915 -0.5096914 0.93490976 1.2218455
000010 a6 cb b0 be 7c 45 87 3f 0b 10 87 bf 60 0b 8f 3f
       -0.3453037 1.056808 -1.0551771 1.1175346
000020 77 d7 5b 3f 52 95 72 3f e9 c4 16 3f 4f 56 c6 3e
       0.8587565 0.94759095 0.5889421 0.38737723
000030 4e 84 71 3f 82 b2 45 3f d3 f4 77 bc 1a a2 7a 3f
       0.94342506 0.77225506 -0.015134054 0.979036
000040 29 9b a6 3e a0 d1 92 be cf 0b 82 bd 46 82 55 bf
       0.32540253 -0.28675556 -0.063499086 -0.83401906
000050 8e 22 d5 be 8d d8 7b bd ce a8 09 bd 43 2a 3b bd
       -0.41627926 -0.061485816 -0.03360825 -0.0456946
000060 47 e2 8c 3f f8 c8 e4 be 55 5c 9c 3f ad 59 dc be
       1.1006554 -0.44684577 1.2215677 -0.43037167
000070 82 3e 34 3f e8 50 8f 3f 63 ec c8 3e 15 1a 57 bf
       0.7040788 1.1196566 0.3924285 -0.84024173
000080 0b 83 c8 bd 94 14 c5 be 7e 4d 6a 3f 15 42 2f bf
       -0.097906195 -0.38492262 0.91524494 -0.6846021
000090 2e d9 82 3f d8 47 c9 bc 63 b5 42 bc 0f 58 be 3e
       1.0222528 -0.02457039 -0.011884066 0.37176558
0000a0 5a 44 ab bb 6d 56 e6 bc a7 78 8e 3f de 67 bb 3f
       -0.005226654 -0.028117383 1.113057 1.4641073
0000b0 c4 b3 7c bd 77 eb 75 3f 31 4b 7f 3f f9 b5 94 3f
       -0.061694875 0.96062416 0.9972411 1.1618034
0000c0 58 a2 0b be f6 7d c4 3e 20 d0 be 3e 9b ea e1 bb
       -0.13636148 0.3837735 0.37268162 -0.006894422
0000d0 b8 50 b4 be ed 65 bc 3e 45 e7 e9 3e 22 f1 78 3f
       -0.35217834 0.36796513 0.45684257 0.9724294
0000e0 93 8e 1d bf 5a 8a 75 3f 54 d7 18 bd a0 17 3f 3f
       -0.61545676 0.9591423 -0.037314728 0.74645424
0000f0 e0 2d 7a be 51 11 23 be e6 4d 7c 3f 74 9e e8 be
       -0.24431562 -0.15924574 0.98556364 -0.4543339

hidden_layers.0.weight f4 [64, 64]
000000 bf 2e 0e bf 1c a7 a1 3e d5 b9 0f 3c eb 94 67 3e
       -0.5554008 0.31572807 0.008772333 0.22615401
000010 0e d4 9b 3d bc 00 97 be e6 f7 12 bf c1 d2 37 3d
       0.076088056 -0.29492748 -0.57409513 0.044878725
000020 6c 75 4e 3e 5d 6c 7f bd 23 1b cf be d2 b5 9e be
       0.2016198 -0.062359203 -0.4045039 -0.30998093
000030 24 f1 35 3c 4f a6 ff 3e 43 cd 32 bf 7b 1b ce 3e
       0.011104856 0.4993157 -0.69844455 0.4025534
000040 c9 13 0a bf f7 f4 8e bf 8b db 69 be d6 2f d6 3d
       -0.5393644 -1.1168507 -0.22837655 0.10458343
000050 9c 42 ae be 65 e4 46 bb 75 d3 04 bf c1 80 ec be
       -0.34035194 -0.0030348536 -0.5188516 -0.4619198
000060 c6 9f 47 3e 70 09 50 3d 9f 19 b0 3c 0f 87 a3 3d
       0.19494542 0.05079025 0.021496592 0.07984745
000070 a9 d3 f3 3e 06 e6 7b 3d 75 01 ee 3d 58 c5 dd be
       0.4762242 0.061498664 0.11621372 -0.43314624
000080 92 ce d6 3e 3a d9 a7 be 18 55 3f 3d 31 06 41 bf
       0.41954476 -0.32782918 0.04671201 -0.7540007
000090 57 d9 8f bd 9d 7f 17 be 01 e2 47 bf 60 a6 c4 be
       -0.07023876 -0.14794774 -0.7807923 -0.38408184
0000a0 fc a9 30 bf a5 75 e7 be be 16 04 3f 21 1b 03 3f
       -0.69009376 -0.45206943 0.515972 0.5121327
0000b0 ca ff 04 bf 6a 99 bb 3e 13 8c 13 3d c0 fd ae 3e
       -0.51952803 0.36640483 0.036022257 0.3417797
0000c0 f6 1f f5 bd b8 ac 10 bf a3 a9 9b bd 8f ec 20 be
       -0.11968987 -0.5651355 -0.07600715 -0.1571524
0000d0 0b f6 33 bb f3 87 9d be f3 71 e6 be ed 1d c3 bd
       -0.0027459885 -0.30767784 -0.4500881 -0.09527192
0000e0 2d 0e 09 bf fc bf 01 3e cc 40 f5 be 24 54 7e 3c
       -0.53537256 0.12670892 -0.47901 0.01552299
0000f0 2a 61 85 3d ed 23 5d be 1a 09 16 3f 3d 36 8f 3e
       0.06512673 -0.21595736 0.5860764 0.27971068
000100 06 27 30 bf 11 27 c8 3e 83 e7 1b be 9f e9 03 3e
       -0.68809545 0.39092305 -0.15225033 0.12882088
000110 00 ad bf 3a 4c 24 df 3d 6a 85 72 bf 19 85 08 3e
       0.0014623702 0.10895595 -0.94734824 0.13332023
000120 01 d4 33 3e fb b0 86 bd a6 36 a7 be e9 13 0d bf
       0.17561342 -0.06576725 -0.3265888 -0.55108505
000130 5b e8 0b 3d 04 9d a7 3e 05 dd 57 bf 77 e9 6a 3e
       0.03415714 0.3273698 -0.84321624 0.22940622
000140 ff 2a ff be 36 cf e6 bf 48 40 1b bf 96 1e 06 be
       -0.4983749 -1.8031986 -0.6064496 -0.13097605
000150 43 0f fa be 8f e2 57 be d9 93 02 bf b1 28 13 bf
       -0.4883977 -0.21082519 -0.5100685 -0.57483965
000160 d6 81 f8 3e 8e 64 cb 3d 18 bd 9e 3e 5e f8 48 3d
       0.48536557 0.09931289 0.31003642 0.049064986
000170 54 a9 22 3e 3c 47 46 3e 35 bf 32 be 7c 82 50 bf
       0.15884906 0.19363111 -0.17455752 -0.81449103
000180 e0 30 09 3f 39 aa d0 be ea f9 a4 3c 82 bc 82 bf
       0.535902 -0.4075487 0.0201387 -1.0213778
000190 6d 8a ea 3d ed dd a1 be 4c 45 5e bf 44 b3 22 bf
       0.11452184 -0.31614628 -0.8682449 -0.6355479
0001a0 01 66 83 bf b0 3c 4a bf e6 e0 0e 3f d6 bb e9 3e
       -1.0265504 -0.7899885 0.5581192 0.4565112
0001b0 42 2e 40 bf db 71 87 3e 9d 98 9e bd d2 4f 4a 3e
       -0.75070584 0.26454052 -0.077439524 0.19757012
0001c0 13 1c 80 be 2f 70 0f bf 84 9c a3 be 0c 68 1d be
       -0.2502142 -0.56030554 -0.3195535 -0.15371722
0001d0 69 58 55 bd 92 35 09 bf 4f 59 9e be 66 58 21 be
       -0.052086268 -0.53597367 -0.30927512 -0.15756378
0001e0 11 ba 10 bf 65 e2 3d 3e 66 d9 e0 be 99 db 93 bd
       -0.56533915 0.18543394 -0.43915862 -0.07219619
0001f0 30 71 8e 3c 7b 0b b7 be 1d 49 fd 3e d9 48 8f be
       0.017387956 -0.35750946 0.49469844 -0.27985266
000200 42 a2 17 3f 41 77 a0 3d fc 64 c5 3e 4c fb 45 be
       0.5923196 0.07835246 0.38553607 -0.19334143
000210 80 c7 47 3d c0 4a 31 3f c3 b2 60 3e 58 41 e6 3e
       0.048774242 0.69254684 0.21943192 0.44971728
000220 63 59 8a 3e 06 8a 80 3e 86 f7 2c be 4b f6 26 bf
       0.27021322 0.25105304 -0.16891298 -0.65219563
000230 e1 55 33 3f 63 10 90 3e 74 61 a8 3f 92 24 0d 3b
       0.70052916 0.28137502 1.315474 0.002153669
000240 e7 2a 2a 3f 4b 31 49 3f 75 51 41 c0 54 af 0b 3e
       0.66471714 0.7859084 -3.0205967 0.13641101
000250 7d e7 f4 3d 16 ee 0d c0 c7 78 76 3d 80 e4 34 bc
       0.119582154 -2.2176566 0.060173776 -0.011040807
000260 0b 4b 44 3e 1e 6e ef bd 01 63 1c 3e a7 22 c9 bd
       0.19169252 -0.11690925 0.15272142 -0.098210625
000270 0d 5b c3 be 74 d3 93 3e 03 a9 22 3f 4b e0 8a 3e
       -0.38155404 0.28872263 0.6353914 0.27124247
000280 71 4d 3b bf e5 11 55 bf 86 53 90 3c 83 a5 2b 3f
       -0.7316504 -0.8323043 0.017617952 0.67049426
000290 7c ac 9c 3d 67 98 a3 c0 fe 67 bb 3e 46 f0 e1 3e
       0.07650086 -5.112354 0.36602777 0.44128627
0002a0 36 f6 16 3f ee d9 4f 3e 41 ff 5f 3c 16 48 ce bf
       0.5896944 0.20297977 0.013671697 -1.6115749
0002b0 6a c2 e7 bf 55 97 5d 3d 53 5f 36 3e 42 4e 9d bf
       -1.8106205 0.0540994 0.17809801 -1.2289507
0002c0 00 0a 41 3e 5c 14 3e 3f 89 c3 08 3f 91 fa ac c0
       0.18851471 0.74249816 0.5342336 -5.4055867
0002d0 64 ad 88 bd 4b 47 c0 3e c1 a8 47 be 34 46 4c 3e
       -0.06673697 0.37554392 -0.19497968 0.19948655
0002e0 f7 11 12 bf 09 05 8c 3d 1c 5b b7 c0 1d ed 13 3f
       -0.5705866 0.06836898 -5.7298717 0.5778368
0002f0 d2 a9 cb 3d 42 e1 61 3e 16 29 af 3e 8c fd 16 bd
       0.099445 0.22058585 0.34211034 -0.036862895
000300 c4 63 9f bc e7 0e 2d c0 18 9b 3d 3e 55 54 af 3c
       -0.019456752 -2.7040346 0.18516195 0.021402517
000310 10 79 1b bc 4e e8 9b 3e 01 06 2a bf 36 d5 25 3d
       -0.009489313 0.30450672 -0.6641541 0.040486537
000320 f0 6b e7 3e b5 cf 7b bd 33 17 4f bf 4f 82 6e bf
       0.45199537 -0.06147738 -0.80894774 -0.93167585
000330 d4 64 6d 3e 5a e2 db 3e a6 0c 25 3f 3d a6 1e 3e
       0.23182994 0.4294613 0.64472425 0.15493102
000340 03 3a 41 3e 7b c6 99 3c f4 74 6c 3e 4f ef 28 3e
       0.18869786 0.0187714 0.23091489 0.16497539
000350 53 03 35 3f 35 f6 c6 bd 93 61 4a 3d 18 52 bd bd
       0.707082 -0.09714929 0.04940946 -0.09244174
000360 77 8a ed 3e 4c f6 22 3d 74 9f c7 3d 6a e7 39 3f
       0.46394703 0.03978567 0.0974721 0.72618735
000370 b9 c6 b7 be 43 17 26 3e d8 31 43 3f 94 9b 93 be
       -0.358938 0.16219811 0.7624793 -0.28829634
000380 e1 f9 42 bf e8 b5 91 c0 4f 5d 83 3e b1 07 d1 3d
       -0.76162535 -4.5534554 0.25657126 0.10206545
000390 e7 70 c1 3d 7e f9 5b bf ce 22 84 3e 28 fe 9d be
       0.094453625 -0.8592757 0.25807804 -0.30857968
0003a0 3b 70 ce 3e 30 f6 31 3e ad 4b 7b 3d ba d0 cb 3c
       0.4032 0.1737907 0.061351467 0.024879802
0003b0 bf 9e e5 3e a6 ac 0b 3f 85 fb c0 bc 0a 51 d6 be
       0.44847676 0.54560316 -0.023557434 -0.41858703
0003c0 a4 ac 4f 3d a4 86 85 3d 23 c6 05 3f 5d 33 ac be
       0.050701752 0.06519821 0.5225546 -0.33632937
0003d0 9c e4 c5 3e 3a 5f a1 be b4 3f 29 bf 01 d4 f8 3d
       0.38650978 -0.31517965 -0.6611283 0.121498115
0003e0 87 7d 5a c0 9e bb 79 3e 3f 7c a0 bf f0 88 d2 3c
       -3.4139116 0.24387977 -1.2537917 0.025700063
0003f0 60 d6 b3 3c 31 a2 5c 3e 7f cd 46 3e 19 a1 83 be
       0.021952808 0.21546246 0.19414328 -0.25708845

hidden_layers.0.bias f4 [64]
000000 6e 2a f6 3d 36 1f 0d 3e 04 b8 bb 3e 68 b7 79 3e
       0.120198116 0.13781437 0.3666383 0.2438637
000010 47 79 dd bd 1b bb bb 3e 22 ba d1 3d 2d 80 9e 3d
       -0.108141474 0.36666188 0.1024058 0.07739291
000020 dd 7f 10 be b0 b7 d1 3e 3b 26 8b 3e a3 18 c1 3e
       -0.14111276 0.40960455 0.27177605 0.3771411
000030 26 3b cc 3e f4 6b 31 3f 90 cb 13 3f dc aa 98 3e
       0.39888877 0.6930535 0.57732487 0.29817855
000040 5b 12 a0 3e 39 f2 9a 3d 95 f6 ad 3e d5 41 d5 3e
       0.31264004 0.075657316 0.3397719 0.41651788
000050 a4 a0 3e 3c 77 30 01 3f 23 0d 85 3d 39 42 64 3e
       0.011634979 0.50464576 0.06496646 0.22290887
000060 9b e3 05 bd b6 2a 02 3f a4 e5 a5 3e a6 cd e8 bd
       -0.032687765 0.5084642 0.32401764 -0.11367349
000070 71 7b ce 3e 54 ef c4 3e c2 0a 0a 3f 94 35 84 3c
       0.40328553 0.38463843 0.53922665 0.01613883
000080 61 f3 0f 3e 18 2e b3 3e 7a ae a2 3d e2 32 95 3e
       0.14057685 0.34996104 0.07943435 0.29140383
000090 2b 26 71 3d 9a 88 07 3c 11 b0 ec bd 93 4e d0 3e
       0.05887429 0.008272314 -0.115570195 0.40684947
0000a0 76 fe 06 3f 1d ce c8 3e 8f 4a 46 3e 2f bf df 3e
       0.52732027 0.39219752 0.1936438 0.4370055
0000b0 2b 3f 00 3f bf 58 c9 3e 07 e5 68 3e 15 d4 03 bd
       0.50096387 0.3932552 0.22743617 -0.03218468
0000c0 1a 26 90 3c 43 37 63 3e 44 1d 94 3e 2e 0e c4 bc
       0.017596293 0.2218905 0.28928578 -0.023932543
0000d0 f7 bb 7f 3f fd fe b3 3e 64 99 10 bd 13 bc 91 bd
       0.99896187 0.35155478 -0.035302535 -0.071159504
0000e0 2e 6b 60 bc 59 ac 5f bc 60 8c c6 bb 13 28 d9 3e
       -0.013697429 -0.013651931 -0.0060592145 0.42413387
0000f0 e0 df f0 3c c0 50 a2 3e dc b1 12 bd df 91 42 3f
       0.029403627 0.31702232 -0.03581415 0.7600383

output_value.weight f4 [1, 64]
000000 b3 8b 94 3f ec 13 cb 3f cd 80 4d bd db 0f 8b 3e
       1.1605133 1.5865455 -0.050171662 0.27160534
000010 d9 2a 2d bf 34 4a 1f 40 30 99 df bd 18 6f 6c bd
       -0.67643505 2.488904 -0.1091789 -0.057723135
000020 5c 9a b2 bd ac 55 01 40 a3 98 0c 40 a0 4c a6 40
       -0.08720848 2.020854 2.1968162 5.1968536
000030 77 b4 0d 40 d1 63 25 bf 85 4a 21 bf aa 7f f9 3f
       2.2141397 -0.6460543 -0.6300433 1.9492085
000040 79 c4 13 bf c5 94 a3 3c 05 c9 93 40 f8 96 0d 40
       -0.5772167 0.0199684 4.6182885 2.2123394
000050 f8 aa 9b 3c 0d f8 54 40 e1 ec b8 3f 66 94 3d bd
       0.019002423 3.3276398 1.444729 -0.046284102
000060 73 5d d4 3d fb f6 13 40 55 54 f5 3f 69 8a b2 bd
       0.103693865 2.3119495 1.9166361 -0.08717806
000070 30 16 11 40 a5 8e 2d 3f 96 cf 65 3f 94 e3 bd bd
       2.2669792 0.67795783 0.89769876 -0.09271923
000080 48 5d 2a bf 93 3b 1e 40 3c 01 af 3f 83 11 78 3f
       -0.66548586 2.4723861 1.3672252 0.9690172
000090 24 10 8a be a1 16 86 3d fe 38 4a 3b a0 bb 58 40
       -0.2696544 0.06547285 0.0030856724 3.3864517
0000a0 a7 a4 7a bf d4 4d 90 40 54 69 b8 3f af df 07 40
       -0.9790749 4.5095005 1.4407144 2.1230276
0000b0 ec 4a bb be 3d c9 0f 40 40 76 af 3f 30 b3 72 3d
       -0.36580598 2.2466576 1.3707962 0.059252918
0000c0 6c 82 5e bf 4d f8 f7 3f 4b 35 c8 3f 15 14 46 bf
       -0.8691776 1.937265 1.5641264 -0.7737439
0000d0 4f c7 61 be 01 f1 9e 3e 9b 7a ac 3e 65 d6 d4 be
       -0.22048686 0.31043246 0.3368729 -0.4156982
0000e0 86 9c 1d 3d 07 1f 05 bf a0 68 45 3c 08 d9 8a 3f
       0.03847935 -0.5200047 0.01204887 1.0847483
0000f0 a4 e0 15 bf db d3 f1 3f 15 4b 1f 3e 6a f8 51 bf
       -0.585459 1.8892778 0.15555985 -0.82019675

output_layer.weight f4 [2, 64]
000000 d6 cc 14 3f 55 46 8b 3e 2e f5 57 bf f8 07 4e bf
       0.58125055 0.27202097 -0.8435849 -0.8048091
000010 56 16 16 3f e5 43 d2 3e 34 c3 00 be 30 f8 f8 bd
       0.5862783 0.41067424 -0.12574464 -0.12156713
000020 34 cf 35 3c 1b e3 a4 3e 4a 59 99 be 3d c4 4d 3f
       0.011096764 0.32204518 -0.29950935 0.8037756
000030 00 53 16 bd c6 90 6f be 10 31 fb 3e e4 e6 b0 be
       -0.03670025 -0.2339507 0.4906087 -0.34551156
000040 25 f8 d5 3e aa bf ae bb 85 ee 15 3f b3 71 cb b9
       0.41790882 -0.0053329067 0.58567077 -0.0003880389
000050 64 a3 7f bc c7 e1 0e bf 5f 38 04 3f 81 3a 75 bf
       -0.01560292 -0.5581326 0.51648515 -0.95792395
000060 38 0a fd be 76 05 b1 bd a2 d8 16 3e 44 44 f8 bc
       -0.4942186 -0.0864362 0.14731076 -0.03030599
000070 14 9a d3 3c fe dd 4b bf 47 3a 4e bf 23 90 59 3d
       0.025830306 -0.7963561 -0.80557674 0.053115975
000080 32 93 ab bf 89 db a9 3e 91 e2 da 3e 3a 0f 2f 3f
       -1.3404295 0.33175305 0.4275098 0.6838261
000090 d3 e7 84 3f 0c dd a1 bf 33 24 c7 bd 76 04 d2 be
       1.0383247 -1.2645583 -0.09723701 -0.41019028
0000a0 14 f2 2a 3e 50 c9 36 bf 9c 3c 82 3e df 79 84 3d
       0.16693908 -0.7140093 0.25436866 0.064685576
0000b0 33 a3 df 3e ce a3 6e be 0c db 03 3f 84 19 04 3d
       0.436792 -0.23304674 0.51506114 0.032250896
0000c0 31 a7 6a bf b3 0f b3 be f7 c5 c0 3e 32 48 9d bf
       -0.91661364 -0.34972915 0.37651035 -1.2287657
0000d0 b9 bb 62 3d a4 2c 26 bf 81 ca 1f bf 30 5d b8 bf
       0.055354808 -0.64911866 -0.6241837 -1.4403439
0000e0 73 c8 95 3b 5f 9c 01 3f ec c3 b7 3d 10 69 3c bf
       0.0045710145 0.5062923 0.08972916 -0.7359781
0000f0 b2 f6 a4 bf ce 5f 73 3c 54 5c 11 bf 37 04 63 3d
       -1.2887785 0.014854385 -0.56781507 0.05542394
000100 8c b2 12 bf 4f 72 b2 be e6 84 50 3f ba 78 6e 3f
       -0.5730369 -0.34852836 0.81452787 0.93152964
000110 26 91 3b bf 11 f5 b7 be aa 8b 25 3d a6 4d a9 3c
       -0.73268354 -0.35929158 0.040416397 0.020666908
000120 36 a1 5b 3d 4b 6f 75 be c4 a0 b3 3e c3 25 69 bf
       0.05362054 -0.23968236 0.35083592 -0.91073245
000130 76 da 5d 3e 33 d9 db 3d a4 3a c4 be c4 06 5f 3e
       0.21665367 0.10734787 -0.3832599 0.21779925
000140 35 3f f7 be 88 51 9a 3d 1d 1c 38 bf 94 98 d7 bc
       -0.4829041 0.07535082 -0.719179 -0.026317872
000150 04 6e 8c 3d 04 c8 f8 3e 79 e2 cd be 05 47 4d 3f
       0.06856921 0.485901 -0.40211847 0.8018649
000160 7a 6f 1c 3f 4e 8b c1 3d 34 8a d8 bd 61 29 20 be
       0.611076 0.094503984 -0.10573235 -0.15640785
000170 45 e1 53 3d 20 1b 4b 3f 63 84 52 3f c1 d6 32 3d
       0.051728506 0.79338264 0.82233256 0.043661837
000180 a6 00 ae 3f 94 24 5f be a4 e6 05 bf 10 e5 1a bf
       1.3593948 -0.21791297 -0.52305055 -0.6050577
000190 62 36 85 bf 63 10 b7 3f c5 cb ac bd be 38 df 3e
       -1.0407221 1.4301876 -0.084373035 0.43597978
0001a0 80 0c 65 be 42 a3 25 3f 0b 6f 38 be 3a 9b e1 bd
       -0.2236805 0.64702237 -0.1801111 -0.11015935
0001b0 89 c7 a1 be 2a 02 75 3e cf b8 e6 be f1 6e 4f 3d
       -0.31597546 0.23926607 -0.45062873 0.05064291
0001c0 31 04 62 3f 61 b3 89 3e 1d cb cf be d0 e7 a2 3f
       0.88287646 0.26894668 -0.4058465 1.2726994
0001d0 e4 fc b2 bd 6c ad 3c 3f f3 9f 14 3f fa 6d a2 3f
       -0.08739641 0.7370212 0.58056563 1.2689812
0001e0 53 c8 c3 bd 3b 2f 27 bf c4 46 d1 3d 0e 74 51 3f
       -0.09559693 -0.6530644 0.102185756 0.8181771
0001f0 96 28 a4 3f 8a ee 39 bd 35 88 18 3f 2e 8b d1 bb
       1.2824886 -0.045393504 0.59582835 -0.0063947653

output_layer.bias f4 [2]
000000 2b fd c4 3e 17 4d f2 be
       0.38474402 -0.4732444
