chapter_06/checkpoints/checkpoint_312.pth (torch_old, 20050 bytes, 7 tensors)

input_layer.weight f4 [64, 4]
0	0xbb678d24	-0.003533193
1	0x3e4d4a70	0.20047927
2	0x3ec3b93b	0.38227257
3	0x3e50d6c8	0.20394433
4	0x3e32d2dc	0.17463249
5	0x3d327d1f	0.043576356
6	0xc0285105	-2.629945
7	0xbf468454	-0.77545667
8	0x3e53b1c1	0.20673276
9	0x3ee5d439	0.44888476
10	0x3f21987d	0.63123304
11	0x3e71b889	0.23605551
12	0x3e7b790b	0.24557893
13	0xbec192e0	-0.3780737
14	0xbefff578	-0.49991965
15	0x3e25d49d	0.16194387
16	0xc00a48d3	-2.1606948
17	0xbf8796bf	-1.0592879
18	0xc021a0c5	-2.5254376
19	0xbf301b9f	-0.68792146
20	0x3f847c4b	1.0350431
21	0x3e326a77	0.17423426
22	0x3fa2b626	1.2711837
23	0x3f766b1e	0.962572
24	0xbeadc0fa	-0.33936292
25	0x3e7b8bb3	0.2456501
26	0x3f3c2f77	0.73509926
27	0x3f1b7964	0.607321
28	0x3f4eef05	0.80833465
29	0xbbda8c42	-0.006669552
30	0x3f6cd810	0.92517185
31	0x3d016460	0.031589866
32	0x3f4e2a64	0.8053343
33	0x3f770dfe	0.96505725
34	0x3fa5fdda	1.2968094
35	0xbea75c5e	-0.32687658
36	0x3c6a885b	0.014314736
37	0xbeaf2a5b	-0.34212002
38	0xbf030f81	-0.5119553
39	0x3e5c7121	0.2152753
40	0x3f4c2136	0.79738176
41	0x3a9682b0	0.001148304
42	0xbeb0c632	-0.3452621
43	0x3edaa7a4	0.42706025
44	0xbedc1877	-0.42987415
45	0xbe434c60	-0.19072104
46	0xbe418f8d	-0.18902417
47	0x3b939d75	0.0045048543
48	0x3f5d916e	0.86550033
49	0x3f6a0a19	0.9142166
50	0x3fb42027	1.4072312
51	0xbd28e00b	-0.04122929
52	0x3f91e5b0	1.139822
53	0x3fae8aaa	1.3636067
54	0x3f2711b0	0.65261364
55	0xbf83373c	-1.0251231
56	0x3ec21883	0.37909326
57	0xbd3fccf9	-0.046826337
58	0xc02c2976	-2.6900306
59	0xbf7f6e5e	-0.9977778
60	0x3f0f728f	0.5603418
61	0xbc642f1a	-0.0139272455
62	0xbfb842e2	-1.4395411
63	0xbd7fb37e	-0.062427036
64	0x3de20034	0.11035195
65	0xbd068cc1	-0.032849077
66	0x3e8e4031	0.2778335
67	0x3e207435	0.1566933
68	0xbeaa4b24	-0.33260453
69	0x3e90c65c	0.28276336
70	0x403d4dbc	2.9578695
71	0x3f2c60aa	0.67335
72	0xbf79205b	-0.97314996
73	0xbf8d1e57	-1.1024884
74	0xbfbfaae3	-1.4974025
75	0xbf3e8cff	-0.7443389
76	0x3d289902	0.041161545
77	0xbedd6467	-0.43240663
78	0x3f4e0fe7	0.80493015
79	0x3f03818e	0.5136956
80	0x3e1eb4f7	0.1549872
81	0xbda76fe7	-0.081756406
82	0xbfd93571	-1.6969434
83	0xbe95dc5d	-0.29269686
84	0xbfd47139	-1.6597053
85	0xbf910f94	-1.1332879
86	0xbf43b538	-0.7644839
87	0x3dcef432	0.1010517
88	0x3edf09dc	0.4356221
89	0x3f40c726	0.75303876
90	0x402c34c1	2.6907198
91	0x3f10184a	0.5628706
92	0x3ee5f0a9	0.44910172
93	0x3f5fa278	0.8735728
94	0x4033421e	2.8009105
95	0x3f1eaea9	0.6198526
96	0x3f80c265	1.0059325
97	0x3f46cebb	0.77659196
98	0x3fb6fba5	1.4295546
99	0xbd91c9f3	-0.07118597
100	0x3ec05274	0.37562907
101	0xbebd2671	-0.3694339
102	0xbd510b13	-0.05103595
103	0xbec09a52	-0.37617737
104	0x3eef8bf8	0.46786475
105	0x3e4a9533	0.19783477
106	0x3f92dbaf	1.1473292
107	0x3f3c5dc0	0.7358055
108	0x3e7addc3	0.24498658
109	0xbe3a05da	-0.18166295
110	0xbfde5082	-1.7368319
111	0xbf261ba1	-0.6488591
112	0xbd235712	-0.03987796
113	0x3cb2554c	0.021769188
114	0x3fa07e17	1.253848
115	0x3efe922a	0.4972089
116	0xbe44abc9	-0.19206156
117	0xbd087c91	-0.03332192
118	0x3fccd528	1.600255
119	0x3f64e30a	0.89408934
120	0x3e8f7f7b	0.28026947
121	0x3f86709f	1.0503119
122	0x3fd6e755	1.6789347
123	0xbf0aadc0	-0.5417137
124	0x39b51604	0.00034539413
125	0xbe216b4a	-0.15763584
126	0x3ff44e3c	1.9086375
127	0x3f776ac3	0.9664728
128	0x3eea20e1	0.4572821
129	0x3f6b1f99	0.9184509
130	0x40322acb	2.7838619
131	0x3f33d98e	0.7025384
132	0x3ea3c44b	0.31985697
133	0xbe8a70a9	-0.27039078
134	0xbff513bc	-1.9146647
135	0xbf1e2dd6	-0.6178869
136	0x3f4f2d5e	0.809286
137	0x3f4f82ed	0.8105915
138	0x3f1d76d4	0.6150944
139	0xbeef17ff	-0.46697995
140	0xbd1ea5b3	-0.03873224
141	0xbe161143	-0.14655022
142	0x3f47280e	0.77795494
143	0x3f12b3d5	0.5730565
144	0x3ed7dc1f	0.42160127
145	0x3e73088f	0.23733734
146	0xbd888104	-0.06665233
147	0xbe3258fd	-0.17416759
148	0xbe9b7b26	-0.30367392
149	0xbf41b527	-0.7566704
150	0xc01cfa62	-2.4527822
151	0xbf1ab408	-0.60430956
152	0x3e94717f	0.2899284
153	0x3ec950c8	0.39319444
154	0x401c00e7	2.437555
155	0x3f53421e	0.8252276
156	0xbc2d2b9d	-0.01056948
157	0x3c999695	0.01874856
158	0xbe9fb083	-0.31189355
159	0x3ec3bb0d	0.38228646
160	0x3e169bf1	0.14707924
161	0x3edbcee4	0.42931283
162	0x3fde44fa	1.73648
163	0x3f622b37	0.8834719
164	0x3efae41e	0.49002165
165	0x3f4a0f7a	0.78929865
166	0x4038f79e	2.8901134
167	0x3f0fb81d	0.5614031
168	0x3f5d783f	0.86511606
169	0x3f7b2815	0.98108035
170	0x3fa2c28c	1.2715621
171	0xbdbcc12c	-0.09216532
172	0xbe709444	-0.23494059
173	0xbeb60f9c	-0.35558784
174	0xc05973b6	-3.3976874
175	0xbebc9570	-0.36832762
176	0xbebf524c	-0.37367475
177	0x3d787029	0.06065384
178	0x3f850154	1.039103
179	0xbd1e7a81	-0.038691048
180	0x3e830178	0.25587058
181	0xbd751c05	-0.059841175
182	0x3f37d1bd	0.7180441
183	0xbe0fa34d	-0.14027138
184	0x3e6fa439	0.2340249
185	0xbe5297bd	-0.20565696
186	0xbc1d431f	-0.009598522
187	0x3f0a2908	0.5396886
188	0x3e049aaf	0.12949632
189	0xbf3ce600	-0.7378845
190	0xc027c110	-2.6211586
191	0xbf1d0bb9	-0.6134601
192	0x3fc04b63	1.5023006
193	0x3eea1035	0.4571549
194	0xbfa9e59c	-1.3273196
195	0x3e355a13	0.17710142
196	0x3ee45fb2	0.4460426
197	0xbe704ee0	-0.23467588
198	0x3fe933da	1.8218949
199	0x3f11b5a7	0.56917804
200	0x3f0502e2	0.51957524
201	0x3f340821	0.70324904
202	0x3fbca9fa	1.4739373
203	0xbea824b3	-0.328405
204	0xc0149f2b	-2.3222148
205	0xbfaa3345	-1.3296896
206	0xc01c4c3b	-2.4421527
207	0xbf840b9d	-1.0316044
208	0x3fa24282	1.2676547
209	0x3f1cdcda	0.6127449
210	0x3eca584b	0.39520487
211	0x3efc6230	0.4929366
212	0x3eb07c83	0.34469995
213	0x3d998a1b	0.07497045
214	0x3f314432	0.6924468
215	0xbea66776	-0.3250081
216	0x3edd8302	0.43264014
217	0xbec70799	-0.38872984
218	0xbd919311	-0.07108129
219	0x3eb28ca1	0.34872916
220	0x3e211e7e	0.15734288
221	0x3e7115fa	0.2354354
222	0x3f597037	0.8493685
223	0xbecdd5d8	-0.40202212
224	0x3ea85b4b	0.3288215
225	0xbe94879e	-0.29009718
226	0xbfec0232	-1.843817
227	0xbf46f588	-0.777184
228	0x3f4d9001	0.8029786
229	0x3f2416f0	0.640975
230	0x3ec4552c	0.3834623
231	0xbe9bfcf5	-0.30466428
232	0x3e146c9b	0.14494555
233	0xbed3255e	-0.41239446
234	0xc01016a5	-2.251382
235	0xbf03a9f6	-0.51431215
236	0x3f28ec99	0.6598602
237	0x3ea4d123	0.3219081
238	0xbee6259c	-0.4495057
239	0x3eb3c606	0.35112017
240	0x3f498c38	0.7872958
241	0x3f1a88ce	0.60365
242	0x3efd9c0f	0.49533126
243	0x3dbbb111	0.09164632
244	0x3fe877f5	1.8161608
245	0x3f0ae9b5	0.5426286
246	0xbf7b8edb	-0.98264855
247	0x3e93c091	0.28857854
248	0x3f56c770	0.8389807
249	0x3f8ad3e7	1.0845917
250	0x3fbc7745	1.4723898
251	0xbf0d8bb3	-0.5529129
252	0xbf219047	-0.63110775
253	0xbf91ecc9	-1.1400386
254	0xbfded6ec	-1.7409339
255	0xbf3207ec	-0.6954334

input_layer.bias f4 [64]
0	0x3f7675d4	0.9627354
1	0xbece683d	-0.40313902
2	0x3f6a32a4	0.9148352
3	0x3f89f728	1.0778551
4	0xbdd6f621	-0.10496164
5	0x3fe5a57a	1.7941124
6	0xbef39719	-0.47576216
7	0x400099b3	2.009381
8	0x3fc41ebd	1.532188
9	0x3f54674d	0.82970124
10	0x3f8d4e63	1.1039547
11	0xbf097f35	-0.5370973
12	0x3fd9eef7	1.7026051
13	0x3f64f234	0.8943207
14	0xbe6beab3	-0.2303875
15	0xbca195c0	-0.019724727
16	0x3f417e0a	0.75582945
17	0xbf6f157d	-0.93392164
18	0xbeb84c97	-0.35995933
19	0xbf266637	-0.6499972
20	0xbef4598f	-0.47724578
21	0xbef294de	-0.47379202
22	0xbd431b38	-0.04763338
23	0xbd0c182b	-0.034202736
24	0x3feade80	1.8349152
25	0xbee8f80e	-0.4550175
26	0x3fed8236	1.8555362
27	0xbed9e4bb	-0.4255732
28	0xbe8393bb	-0.25698647
29	0x40016b38	2.022169
30	0x3f9ac746	1.2092063
31	0xbea56077	-0.3230016
32	0xbd868da6	-0.06569986
33	0xbf2f4833	-0.6846954
34	0x3fa7b5ba	1.3102334
35	0xbed4929f	-0.41518113
36	0x3fc9026a	1.5703862
37	0xbd69a6cf	-0.057043847
38	0xbf90f271	-1.1323987
39	0x3f45b201	0.7722474
40	0xbf54a2dc	-0.83061004
41	0xbc3b0e89	-0.01141704
42	0x3f57f0dd	0.84351903
43	0xbd3998c9	-0.045311723
44	0xbf286f08	-0.6579442
45	0x3ec868fc	0.39142597
46	0x3f4fa848	0.8111615
47	0x3c6cc9ec	0.014452439
48	0xbe260f74	-0.16216832
49	0x3fe04abd	1.7522808
50	0x3f0dcb24	0.55388093
51	0xbbceea7d	-0.0063145743
52	0xbe09eb48	-0.13468659
53	0x3fd60aab	1.6722006
54	0x3fcdab43	1.606789
55	0x3f9ff978	1.2498007
56	0xbf24f56a	-0.6443697
57	0x3fc4be11	1.5370504
58	0xbf1aa410	-0.6040659
59	0x3f848674	1.0353532
60	0xbc071fc0	-0.008247316
61	0xbe2b4db0	-0.16728854
62	0x3fae0c9c	1.3597598
63	0xbdf6253f	-0.12018823

hidden_layers.0.weight f4 [64, 64]
0	0xbe591405	-0.21199043
1	0xbe494a57	-0.19657265
2	0x3c509f93	0.012733358
3	0xbdf5b1cd	-0.119968034
4	0x3f2fd7d0	0.6868868
5	0xbcc44e61	-0.023963155
6	0xbf9388be	-1.1526105
7	0x3e8688d9	0.2627628
8	0x3e357a55	0.17722447
9	0xbebc35cb	-0.3675979
10	0xbe21ae3e	-0.15789124
11	0xbe724c07	-0.23661815
12	0x3e48610e	0.19568273
13	0x3ef39880	0.47577286
14	0x3d9e808f	0.07739364
15	0xbe6c2843	-0.23062234
16	0xbe9020c3	-0.28149995
17	0xc01823fb	-2.377196
18	0x3d56f361	0.052478198
19	0xbf2305fc	-0.63681006
20	0xbef6663e	-0.4812488
21	0x3d74deff	0.05978298
22	0xbf082017	-0.53173965
23	0xbf216975	-0.6305154
24	0x3e49aabd	0.19694038
25	0x3d8ecf3c	0.069731206
26	0x3d421c18	0.047390074
27	0xbedeae18	-0.43492198
28	0xbf67e601	-0.90585333
29	0x3e0246c0	0.12722301
30	0x3e8e8d84	0.27842343
31	0xbf8df2ab	-1.1089681
32	0xbebd87fc	-0.3701781
33	0xbf2078b4	-0.6268418
34	0x3e60bfc4	0.21948153
35	0xbf36f107	-0.7146153
36	0x3ca87a49	0.020566123
37	0xbe4fc856	-0.20291266
38	0xbfdb94bc	-1.7154765
39	0xbe95315b	-0.29139218
40	0xbf8f8b20	-1.1214333
41	0xbf2eec94	-0.6832974
42	0x3e32c78d	0.17458935
43	0xbe402673	-0.18764667
44	0xbf2331c6	-0.63747823
45	0xbdde8c49	-0.10866601
46	0xbe71ef9b	-0.23626558
47	0x3dcfd898	0.10148734
48	0x3da0eb98	0.07857436
49	0x3c890508	0.016726032
50	0x3de28dc5	0.11062197
51	0x3f3cf595	0.7381223
52	0xbdbd308b	-0.092377745
53	0x3e513352	0.20429733
54	0xbc46af1b	-0.012126709
55	0xbda77b9f	-0.08177876
56	0xbf10b4e0	-0.56525993
57	0x3e71a44e	0.23597834
58	0xbeddba41	-0.43306163
59	0x3da4be16	0.080440685
60	0x3d962afc	0.07332417
61	0xbe032abd	-0.12809272
62	0x3ea1b914	0.31586516
63	0xbe17e161	-0.14832069
64	0xbe75c7bd	-0.24001975
65	0xbeb7c94f	-0.35895774
66	0xbe7052cd	-0.23469086
67	0xbeadbfaf	-0.33935305
68	0xbf6e27f0	-0.9302969
69	0x3e43f7b4	0.1913746
70	0xbed20189	-0.41016796
71	0x3e625ed1	0.22106482
72	0x3e2d7d9e	0.1694245
73	0xbee392e5	-0.4444801
74	0xbe3a4347	-0.18189727
75	0xbf38fc3b	-0.72259873
76	0x3e1f6ace	0.15568087
77	0x3eb01f64	0.3439895
78	0xbeb73697	-0.35783836
79	0xbefb3095	-0.49060503
80	0xbe3bd34f	-0.18342327
81	0xc000864f	-2.0081975
82	0xbfb017be	-1.3757246
83	0xbef07d83	-0.46970758
84	0xbf7ee75d	-0.9957178
85	0xbf1c9624	-0.61166596
86	0xbe853f50	-0.26024866
87	0xbf02aa18	-0.5104079
88	0x3ed384c8	0.41312242
89	0x3dec3c6d	0.11534963
90	0x3e742ec4	0.23845965
91	0xbf46991c	-0.77577376
92	0xbf0d2d35	-0.55147105
93	0x3ea40c5b	0.32040676
94	0x3ca63c6d	0.020292485
95	0xbf13bef7	-0.57713264
96	0xbef75051	-0.48303464
97	0xbf85b2c9	-1.0445186
98	0x3e2f2bdd	0.17106576
99	0xbed4738f	-0.41494414
100	0x3db6fa6f	0.08934485
101	0xbfdf12f5	-1.742766
102	0xbf935e58	-1.1513166
103	0xbec5ffca	-0.38671714
104	0xbf778038	-0.9668002
105	0xbf3d86d3	-0.7403385
106	0x3e614b2b	0.2200133
107	0xbead5e34	-0.33860934
108	0xbf82ce92	-1.021929
109	0xbe84a438	-0.2590654
110	0xbeea094e	-0.45710224
111	0xbf2b34e5	-0.66877586
112	0xbd59d471	-0.053181116
113	0x3e299a0a	0.16562667
114	0xbdd3478f	-0.10316383
115	0xbf719d4a	-0.9438063
116	0xbe0fb2d3	-0.1403306
117	0x3d651f3d	0.055937994
118	0x3e4f489a	0.20242539
119	0xbe520ac2	-0.20511916
120	0xbf5eaf04	-0.869858
121	0x3e67b541	0.22627737
122	0xbf439fbb	-0.76415604
123	0xbdad5abe	-0.08464573
124	0x3d8e5636	0.06950037
125	0xbe5494bf	-0.20759867
126	0x3e76edbe	0.24114129
127	0xbf9949f2	-1.1975691
128	0x3e667960	0.22507238
129	0xbe8a4061	-0.27002242
130	0x3e868a4d	0.2627739
131	0x3e34b7ee	0.17648289
132	0x3d60a5d6	0.054845653
133	0x3c5c3a6a	0.013441661
134	0x3f1e5103	0.61842364
135	0x3d625bfe	0.05526351
136	0xbef580d6	-0.47949857
137	0x3ee39bec	0.44454896
138	0xbcaa547f	-0.020792244
139	0x3f348968	0.70522165
140	0xbe670cd9	-0.22563495
141	0xbd54ab72	-0.051921315
142	0xb968ea7c	-0.00022212596
143	0xbf14ee43	-0.5817606
144	0x3e983c18	0.29733348
145	0x3f76ff66	0.9648346
146	0x3f0a5cf8	0.5404811
147	0x3ef8a33d	0.4856204
148	0xbdacd4e4	-0.08439043
149	0x3f1876c8	0.59556246
150	0xbe432dfa	-0.19060507
151	0xbe406a3e	-0.18790528
152	0xbf4d1639	-0.80112034
153	0xbdef6e1e	-0.11690925
154	0x3e152f18	0.14568746
155	0xbdc78186	-0.097415015
156	0x3ead14e6	0.33805007
157	0x3eb9d8d7	0.36298248
158	0xbd00f10f	-0.03147989
159	0x3e9c92ea	0.30580837
160	0xbe8e7418	-0.27822948
161	0xbdb111f6	-0.08646004
162	0xbf48881a	-0.78332675
163	0x3f15ffb8	0.5859332
164	0xbdb3b73b	-0.08775183
165	0x3d908a4d	0.07057629
166	0xbd310f95	-0.04322775
167	0x3eb26f71	0.34850648
168	0x3e5d8eb5	0.2163647
169	0xbd4a1f29	-0.049346123
170	0xbf394f56	-0.7238668
171	0xbd949725	-0.07255391
172	0x3f1f0961	0.62123686
173	0xbf3d8378	-0.7402873
174	0x3e9bcd80	0.30430222
175	0xbfa5f5aa	-1.2965596
176	0x3bc66b60	0.0060552806
177	0x3e9b2ab1	0.30306008
178	0xbf189378	-0.5960002
179	0x3d2c9594	0.042134836
180	0xbe630bed	-0.22172518
181	0x3dfd22f8	0.123601854
182	0x3e22340b	0.15840165
183	0x3ed67d76	0.41892594
184	0xbdcb99f1	-0.09941471
185	0xbed6eb75	-0.41976514
186	0xbf045b55	-0.5170186
187	0xbf0fe425	-0.56207496
188	0x3db72f31	0.08944548
189	0x3dfde9b6	0.123980924
190	0xbf7e4be2	-0.9933454
191	0x3ec4c323	0.38430128
192	0xbd2438cf	-0.04009324
193	0xc085b213	-4.1779876
194	0xbd6d3281	-0.057909492
195	0xbeacfc3e	-0.33786196
196	0xbff093dc	-1.8795123
197	0x3e9ef7b7	0.31048366
198	0xbec851fc	-0.3912505
199	0x3e449ef9	0.19201268
200	0x3e47c340	0.19508076
201	0xbed86cba	-0.42270452
202	0xbea3445d	-0.31888095
203	0xbf97c706	-1.1857612
204	0x3e957dde	0.29197592
205	0x3f10a277	0.564979
206	0xc07108a4	-3.7661524
207	0x3d875765	0.06608466
208	0xbe1fe2bf	-0.1561384
209	0xbe9b0699	-0.3027847
210	0xbf9c67d8	-1.2219191
211	0xbdae2fe2	-0.08505227
212	0xc026865d	-2.601951
213	0xbf57a1eb	-0.8423144
214	0x3e9d707e	0.30749887
215	0x3dc5733c	0.0964112
216	0x3ed35b6f	0.41280696
217	0x3df1e47b	0.11811157
218	0x3e2ca9cc	0.16861647
219	0xc047ea65	-3.1236813
220	0x3deb28c4	0.11482385
221	0x3eb2146e	0.34781212
222	0x3eaf5576	0.3424489
223	0x3f0a1b8e	0.53948295
224	0x3e029204	0.12751013
225	0xc0464546	-3.097978
226	0x3c57f0ca	0.013179967
227	0xbddc7407	-0.10764318
228	0xbb243904	-0.0025058398
229	0xc01156d8	-2.2709255
230	0x3dfaf2f4	0.12253371
231	0xbe7f1986	-0.2491208
232	0x3f41c375	0.7568887
233	0x3f132a1a	0.57486117
234	0x3d78393a	0.06060145
235	0xbff25e71	-1.8935071
236	0xbeb8c698	-0.36089015
237	0xbd24ca7f	-0.040232178
238	0xbea0258c	-0.31278646
239	0xc08cef39	-4.404202
240	0xbe369669	-0.17830814
241	0x3e8a449a	0.27005464
242	0x3e9c2817	0.30499336
243	0xc00ebc9b	-2.2302616
244	0xbc60a48c	-0.013711106
245	0xbd762069	-0.060089502
246	0xbde35712	-0.11100592
247	0x3c893465	0.016748616
248	0xc07689b0	-3.8521538
249	0x3de31566	0.11088066
250	0xc085943c	-4.174345
251	0x3cc1343c	0.023584478
252	0x3eff5195	0.4986693
253	0xbd7ebd84	-0.062192455
254	0x3e35a1be	0.17737481
255	0xbfa4424c	-1.2832732

hidden_layers.0.bias f4 [64]
0	0xbe0b1b9f	-0.13584755
1	0xbe87c6f3	-0.26518974
2	0x3ebbbfa3	0.36669645
3	0xbe80b3dd	-0.25137225
4	0x3e4926a4	0.19643646
5	0xbd68605c	-0.05673252
6	0x3dd14bfe	0.102195725
7	0x3d9da59f	0.07697605
8	0x3e2394ae	0.15974686
9	0xbe4e6083	-0.20154004
10	0xbeb1bcda	-0.34714395
11	0xbea880d9	-0.32910803
12	0xbe13b456	-0.14424261
13	0x3dc0136e	0.09378706
14	0x3e20453d	0.15651412
15	0xbe9567d6	-0.29180783
16	0x3ed742bd	0.42043105
17	0xbe3719b2	-0.17880896
18	0xbeb2d542	-0.34928328
19	0xbcb49457	-0.02204339
20	0xbad18c35	-0.001598722
21	0xbe74115d	-0.23834749
22	0xbec32bb0	-0.38119268
23	0xbdb0e718	-0.08637828
24	0x3d6fa9f6	0.058511697
25	0xbe616203	-0.22010045
26	0xbe8a2ff6	-0.26989716
27	0x3e0ec6d8	0.1394304
28	0xbe9114b0	-0.28336096
29	0x3dc141b9	0.09436364
30	0x3e1870e1	0.1488681
31	0xbe719bee	-0.23594639
32	0x3db8907c	0.09011933
33	0xbe80d34a	-0.251612
34	0xbe14d756	-0.14535269
35	0x3f3016b0	0.6878462
36	0x3ef318be	0.47479814
37	0x3dc7ef64	0.09762457
38	0xbe5aa868	-0.21353304
39	0xbea2a9d5	-0.31770197
40	0x3ec9256f	0.39286372
41	0xbd2f012b	-0.042725723
42	0xbe7fb795	-0.24972375
43	0xbe77b374	-0.2418955
44	0xbdf88555	-0.12134806
45	0xbdb853d9	-0.09000368
46	0x3cdccf9d	0.026954466
47	0xbd06f2f8	-0.032946557
48	0x3defd386	0.11710267
49	0xbd1a5d10	-0.037686408
50	0xbc704b15	-0.014666338
51	0x3dadf01b	0.08493062
52	0x3f2eab75	0.6823037
53	0x3e62ee01	0.22161104
54	0x3c8ef018	0.01744847
55	0x3bc1b9ad	0.005912027
56	0xbc9c3d8e	-0.01907232
57	0xbe037eb2	-0.12841299
58	0x3e443412	0.19160488
59	0xbdafa243	-0.08575871
60	0x3e475a7d	0.19468112
61	0x3ded1014	0.11575332
62	0xbe058794	-0.1304
63	0x3f00a3f0	0.5025015

output_value.weight f4 [1, 64]
0	0x3fc25925	1.5183455
1	0x3fc96d4d	1.5736481
2	0xbf33e051	-0.70264155
3	0x3f0404d1	0.5156985
4	0xbf64c52b	-0.89363354
5	0x4011621b	2.271613
6	0xbddf3f2a	-0.109007195
7	0xbd697639	-0.05699751
8	0xc001b491	-2.026646
9	0x3fd2b8b6	1.6462619
10	0x3fe75ae9	1.8074619
11	0x3fa18ba5	1.2620741
12	0x4013cdf4	2.3094454
13	0xbe889d94	-0.26682723
14	0xbf83aacc	-1.0286498
15	0x40015f65	2.0214474
16	0xbf682432	-0.9068023
17	0x3f61b5d2	0.8816806
18	0x3fc689a0	1.551075
19	0x400f6904	2.2407846
20	0x3f5fe980	0.8746567
21	0x3ff70372	1.9297926
22	0x3fec2ed0	1.8451786
23	0xbfc44c81	-1.5335847
24	0x4024f875	2.5776646
25	0x40086b5f	2.1315534
26	0x3fef0589	1.8673564
27	0xbf585756	-0.84508264
28	0x3fcf32e5	1.6187407
29	0x4006ead2	2.1080823
30	0x4027856d	2.6175187
31	0x40005ac9	2.005541
32	0xbdc6f691	-0.097149976
33	0x4001acdc	2.0261755
34	0x3fd248ca	1.6428463
35	0x3e888b92	0.26668984
36	0x3ec8a247	0.39186308
37	0xbee6f0e8	-0.45105672
38	0x40129c2a	2.2907815
39	0x3fe8f938	1.8201056
40	0xbfa31dd2	-1.2743475
41	0x3d8d5546	0.0690103
42	0x3f95cd0a	1.1703198
43	0x4001302f	2.018566
44	0x3c769487	0.01505006
45	0x40144e02	2.3172612
46	0x3ff0f8a6	1.8825881
47	0x3dccac02	0.099937454
48	0xbed2b9af	-0.4115729
49	0x4021ce1d	2.5282052
50	0x3fea60f4	1.8310838
51	0xbf5efa1b	-0.8710038
52	0xbdef3bda	-0.11681338
53	0xbf2d7c50	-0.6776781
54	0x3dde3104	0.10849193
55	0xbea59bbf	-0.32345387
56	0x3d0af3d4	0.03392394
57	0xbde6d9ff	-0.11272048
58	0xbe204f1e	-0.15655181
59	0x3fc41de9	1.5321628
60	0xbf8e05cb	-1.1095518
61	0x4027c7af	2.6215627
62	0x3c057f9b	0.008148099
63	0xbf8b7e80	-1.089798

output_layer.weight f4 [2, 64]
0	0x3ec521fd	0.38502494
1	0x3e2a0058	0.16601694
2	0x3e927728	0.28606534
3	0xbf6ec592	-0.9327022
4	0x3ea7ae3c	0.32750118
5	0x3e177085	0.14789017
6	0xbe01fcd0	-0.12694097
7	0xbdfd5e6a	-0.12371524
8	0x3ecf2f89	0.40465954
9	0x3e2bbf14	0.1677211
10	0x3e48accb	0.19597165
11	0x3ed54770	0.41656065
12	0xbe37de52	-0.17955902
13	0xbd173684	-0.036917225
14	0xbf130b2b	-0.57438916
15	0xbdb4b8ff	-0.08824348
16	0x3f44f7e4	0.7694075
17	0xbecb7c55	-0.39743295
18	0x3e81fc25	0.25387684
19	0x3ebcf3fc	0.36904895
20	0xbe62c8fb	-0.2214698
21	0xbce8755d	-0.028376276
22	0x3ece1a6e	0.4025454
23	0x3ed7d15c	0.42151916
24	0x3e34d97c	0.17661089
25	0x3e0af443	0.13569741
26	0x3e5b024a	0.21387592
27	0x3e83b549	0.25724247
28	0x3e8a6187	0.27027532
29	0xbf79d7ad	-0.9759472
30	0xbf69b868	-0.91297007
31	0xbe783041	-0.24237157
32	0xbd86addd	-0.065761305
33	0x3d4a229d	0.049349416
34	0x3e951314	0.29116118
35	0x3f2c2b18	0.67253256
36	0x3f2aa047	0.66650814
37	0xbea87fb1	-0.3290992
38	0x3e452d53	0.19255571
39	0xbc72c9c8	-0.014818616
40	0x3e1e80a3	0.15478759
41	0x3b8b6785	0.004254284
42	0xbd4e131c	-0.050311193
43	0x3e4ce161	0.2000785
44	0x3dda0eca	0.10647352
45	0xbe091f64	-0.13390881
46	0x3dd4d4d6	0.10392158
47	0x3be9e8e0	0.0071383566
48	0xbfdcfecd	-1.7265259
49	0xbed9a8fc	-0.42511737
50	0x3e4d8ec5	0.20073994
51	0xbf8ab15e	-1.0835378
52	0x3f21462e	0.6299771
53	0xbfb14eb7	-1.3852147
54	0xbd3e7100	-0.046494484
55	0xbfd57bb2	-1.6678374
56	0xbb9c14f8	-0.004763242
57	0xbda3d370	-0.07999313
58	0x3df40b25	0.11916188
59	0xbf42a174	-0.7602761
60	0xbf2fcaab	-0.6866862
61	0xbe977c9d	-0.2958726
62	0x3b5e1d55	0.0033891995
63	0x3d9f6962	0.07783772
64	0xbec0ed8f	-0.37681243
65	0xbe78587a	-0.24252501
66	0xbea15807	-0.31512472
67	0x3f879b18	1.0594206
68	0xbef2a3d7	-0.47390625
69	0xbdc5a5ed	-0.096507885
70	0x3d2a7226	0.041612767
71	0x3cbae68a	0.022815008
72	0xbeae0cbf	-0.339941
73	0xbdaed13e	-0.085360035
74	0xbe141de1	-0.14464523
75	0xbf060532	-0.5235168
76	0x3eb811b6	0.35951012
77	0xbdb7ac04	-0.08968356
78	0x3f2e8659	0.6817375
79	0xbd21ab1c	-0.039469823
80	0xbf559b5f	-0.834402
81	0x3eef55ea	0.46745235
82	0xbec65715	-0.38738313
83	0xbecaa066	-0.395755
84	0x3e8c82ff	0.27443692
85	0xbd339fa4	-0.043853417
86	0xbe938b9a	-0.28817445
87	0xbf13dc01	-0.57757574
88	0xbd74c50b	-0.059758227
89	0xbe02b152	-0.12762955
90	0xbe306e3c	-0.17229551
91	0xbee34e4e	-0.4439568
92	0xbe45578f	-0.19271682
93	0x3f7914ce	0.9729737
94	0x3f6e0270	0.9297247
95	0x3eada4f3	0.3391491
96	0x3dad85c5	0.0847278
97	0x3d841369	0.06449015
98	0xbec5fe2d	-0.38670483
99	0xbf180111	-0.5937663
100	0xbf2b3d60	-0.66890526
101	0x3efd4c61	0.49472335
102	0xbebf92d1	-0.374167
103	0x3d265523	0.040608536
104	0xbe589b05	-0.21152885
105	0xbd91e68e	-0.07124053
106	0x3dff1cd9	0.12456674
107	0xbe7b7246	-0.2455531
108	0x3c6afcb0	0.014342472
109	0x3e0f7dbf	0.14012812
110	0xbd21bf62	-0.039489157
111	0x3d9b25ba	0.07575555
112	0x3fd8ad59	1.6927902
113	0x3eb04ceb	0.34433684
114	0xbe6b98f9	-0.23007573
115	0x3f905120	1.1274757
116	0xbf297a38	-0.66202116
117	0x3fbc8f19	1.473117
118	0x3b3c91c0	0.0028773397
119	0x3fbf8c96	1.4964778
120	0xbdb0aa7c	-0.08626267
121	0xbd88c3e0	-0.06677985
122	0x3d94ff78	0.07275289
123	0x3f57ac75	0.84247524
124	0x3f2e2e83	0.6803972
125	0x3e87d9e1	0.26533416
126	0x3cc9b8d6	0.02462427
127	0xbcebffe7	-0.028808547

output_layer.bias f4 [2]
0	0x3eebeac3	0.46077546
1	0xbf0c9d64	-0.5492766
