chapter_06/checkpoints/checkpoint_1000.pth (torch_old, 19970 bytes, 7 tensors)

input_layer.weight f4 [64, 4]
0	0x3f7b42e4	0.9814894
1	0x3fd1a190	1.637743
2	0x3fab162c	1.3366141
3	0x3f91d6d7	1.1393689
4	0x3f2c5693	0.673196
5	0xbe39becf	-0.18139194
6	0xc05776d5	-3.366628
7	0xbf88537c	-1.0650477
8	0x3f095b20	0.5365467
9	0x3fbc1741	1.4694597
10	0x3fe32c32	1.7747862
11	0x3fb318e0	1.3991966
12	0x3dc68a93	0.096944
13	0xbfb88caf	-1.4417933
14	0xbfc511a7	-1.5396012
15	0xbf9b67f8	-1.2141104
16	0xbec34b04	-0.3814317
17	0x3ea7a05e	0.32739538
18	0xbdf17db8	-0.11791557
19	0x3e245880	0.16049385
20	0x402bedbb	2.686385
21	0x3f8f8bff	1.1214598
22	0x405b9d1d	3.4314644
23	0x3fdb9f9a	1.7158082
24	0xbf03eb42	-0.5153085
25	0x3e45554a	0.19270816
26	0x3fe6022d	1.7969414
27	0x3ea93455	0.3304774
28	0x3fc683db	1.5508989
29	0x3f79c8eb	0.975722
30	0x3fbd23c4	1.477654
31	0x3f3de7d4	0.74181867
32	0x4050df0b	3.2636135
33	0x40238ac0	2.5553436
34	0x40509db8	3.2596264
35	0x3fdd1908	1.7273264
36	0xbd0531db	-0.03251825
37	0xbf820739	-1.0158454
38	0xbf8cfcd3	-1.1014656
39	0xbf587784	-0.84557366
40	0x3fa17699	1.2614318
41	0x3f8d5783	1.1042331
42	0x3fdf23ed	1.7432839
43	0x3ff2ff56	1.8984172
44	0xbf7c2e4b	-0.9850814
45	0xbeb274c6	-0.34854716
46	0x3f7d556d	0.98958474
47	0xbd776d87	-0.060407188
48	0x4093c03f	4.6172175
49	0x40779f97	3.8691156
50	0x40ce50ec	6.447378
51	0x403a34d7	2.909475
52	0x40040eba	2.0633988
53	0x40421921	3.0327837
54	0x406a397f	3.6597593
55	0x3fd1819c	1.6367679
56	0x3f64f64d	0.89438325
57	0xbd80c870	-0.062882304
58	0xc0258b9d	-2.5866463
59	0xbf865133	-1.049353
60	0x3f97c52e	1.185705
61	0x4005e1b9	2.091902
62	0x3fdb21e9	1.7119724
63	0x3f55a960	0.8346157
64	0x3f57d9f0	0.8431692
65	0x3ea405a7	0.32035562
66	0x3f239131	0.6389342
67	0xbc087a31	-0.008329914
68	0xbfbb4de8	-1.463315
69	0xbe79571d	-0.24349637
70	0x3f9e544b	1.2369474
71	0x3d6ffab9	0.058588717
72	0xbfb5873b	-1.4181894
73	0xbf000967	-0.50014347
74	0x3f8cb49d	1.0992619
75	0xbd6ef3cb	-0.058337968
76	0xbf8408b6	-1.0315158
77	0xbf15272e	-0.5826291
78	0x3f8f266b	1.1183599
79	0x3e0fbfee	0.14038059
80	0x3f381ae6	0.71916044
81	0xbe10dfaf	-0.14147829
82	0xc02ee4b5	-2.7327092
83	0xbf307186	-0.68923223
84	0xbfa9875f	-1.3244437
85	0xbedb669a	-0.42851716
86	0x3f06c643	0.52646273
87	0x3d8e51b4	0.069491774
88	0xbee3b87e	-0.44476694
89	0x3e4f7323	0.20258765
90	0x3fc1fb64	1.5154843
91	0x3eb9fe90	0.36327028
92	0x3db29734	0.08720246
93	0x3e859a46	0.26094264
94	0xbd0ee00f	-0.034881648
95	0x3e40b3ff	0.18818663
96	0x4096a2ee	4.707389
97	0x4046e979	3.108
98	0x4072327b	3.784331
99	0x3ffbcd67	1.9672059
100	0x3ec30a62	0.3809386
101	0xbec881e8	-0.3916161
102	0x3d312120	0.04324448
103	0xbe90245e	-0.28152746
104	0x3f74661a	0.95468295
105	0x3f3beddd	0.73409826
106	0x401c973c	2.4467306
107	0x3fda8631	1.7072202
108	0x3f3580fa	0.7089993
109	0xbec79f45	-0.389887
110	0xc030c39d	-2.7619393
111	0xbf7cb7e4	-0.98718095
112	0x3e93dda4	0.28880036
113	0xbeabeb2a	-0.33577853
114	0x402f45a6	2.738626
115	0x3f7afaf6	0.98039186
116	0x3f088288	0.53324175
117	0x3f7e1ef2	0.9926597
118	0x401d8676	2.4613318
119	0x3fd2a98f	1.6457995
120	0x3f1d1ad8	0.61369085
121	0x3fa0c6a5	1.2560622
122	0x403e0c53	2.9695022
123	0x3f55b1fd	0.83474714
124	0xbe06d542	-0.13167289
125	0xbe1183e0	-0.14210463
126	0x40244e84	2.5672922
127	0x3de246d3	0.11048665
128	0x3d3204ff	0.043461796
129	0x3e8daeeb	0.27672514
130	0xbd8a4e6c	-0.06753239
131	0x3e424d35	0.18974765
132	0x3f8d16b2	1.1022551
133	0x3e69e8cb	0.2284271
134	0xc0250843	-2.5786293
135	0xbf8e69a0	-1.1125984
136	0x401faee5	2.4950497
137	0x400119ce	2.0172
138	0x3feae208	1.8350229
139	0x3f9b29e6	1.2122161
140	0xbe87b9e3	-0.26509008
141	0x3c497dae	0.012298031
142	0x3ffdc621	1.9826089
143	0x3e9d5ba0	0.30733967
144	0x3efa1128	0.48841214
145	0xbf8ad9e5	-1.0847746
146	0xbfaf3a69	-1.36897
147	0xbf41e15f	-0.75734514
148	0xbf5e1429	-0.8674951
149	0xbeab0c4d	-0.33407822
150	0xc01ba4ea	-2.4319406
151	0xbedc1948	-0.42988038
152	0xbf235ce6	-0.63813627
153	0x3e53390e	0.20627233
154	0x401be569	2.435877
155	0x3ebb1177	0.36536762
156	0x3f52aac6	0.8229183
157	0x3f4ac858	0.7921195
158	0x3eb8d494	0.36099684
159	0x3efc52f2	0.49282032
160	0xbf49ffd0	-0.78905964
161	0x3ec987e7	0.39361498
162	0x3fdcca66	1.7249267
163	0x3f088b18	0.5333724
164	0xbf29aeab	-0.6628215
165	0x3e85bae7	0.26119158
166	0x40109cb6	2.2595649
167	0x3ee9369f	0.45549485
168	0x40802a28	4.005146
169	0x40610332	3.51582
170	0x40a0726e	5.0139685
171	0x4018ee75	2.3895543
172	0x3f9d8bf5	1.2308336
173	0xbe44edc3	-0.19231324
174	0xc086c66d	-4.211722
175	0xbf4869ad	-0.7828625
176	0xbf993bb9	-1.1971351
177	0xbed7c7f2	-0.42144734
178	0x3f037657	0.5135245
179	0xbcc5d9c2	-0.024151687
180	0x3f45933d	0.7717779
181	0x3fc5444f	1.5411471
182	0x4030e7c8	2.7641468
183	0x3f3c65c7	0.735928
184	0x3c91c227	0.017792774
185	0xbf7f01af	-0.99611944
186	0xbfb40830	-1.4064999
187	0xbf2f3c3f	-0.68451303
188	0x3fa8ce0f	1.3187884
189	0xbfabbd0e	-1.341707
190	0xc0ba27ba	-5.8173494
191	0xc01b013e	-2.4219508
192	0x3f3db276	0.74100435
193	0xbe977d76	-0.29587907
194	0xc03fbb87	-2.9958208
195	0xbf4fab9b	-0.81121224
196	0x3f91b9e8	1.1384859
197	0x3f2db356	0.6785177
198	0x401bb6ea	2.4330392
199	0x3f9c20ed	1.2197548
200	0x3f290920	0.6602955
201	0x3f9f0f6e	1.2426584
202	0x40250194	2.5782213
203	0x3f623928	0.88368464
204	0xbf7a0b6b	-0.9767367
205	0xbfb89cab	-1.4422811
206	0xbf995abc	-1.1980815
207	0xbe4490b8	-0.19195831
208	0xbea08424	-0.31350815
209	0xbf08d96d	-0.53456765
210	0xc062ec06	-3.5456557
211	0xbf22f825	-0.6365989
212	0x3f3db724	0.74107575
213	0xbf484e16	-0.7824415
214	0xbcbf1719	-0.023326444
215	0xbf29e4ff	-0.66365045
216	0x3f7e4774	0.9932778
217	0xbf632a2e	-0.88736236
218	0xbf94a891	-1.1613942
219	0xbee34974	-0.44391978
220	0xbe025660	-0.12728262
221	0xbf865285	-1.0493933
222	0xbd7f89a1	-0.062387113
223	0xbf34d241	-0.7063332
224	0x3f89813b	1.0742563
225	0xbd3de94d	-0.04636507
226	0xc0208ba6	-2.5085235
227	0xbf7e9fd5	-0.99462634
228	0x3f8c2fc8	1.0952082
229	0x3f561374	0.83623433
230	0x3f2032d8	0.6257758
231	0x3e93d10a	0.28870422
232	0xbe98b583	-0.29825982
233	0xbf040420	-0.51568794
234	0xc047cb61	-3.1217883
235	0xbf8043a9	-1.0020648
236	0x3fd3899e	1.6526372
237	0x3fa43584	1.2828832
238	0x3fa93d4d	1.3221833
239	0x3ff05f51	1.8779088
240	0x3f852e98	1.0404844
241	0x3ecc52e7	0.39907
242	0xbda4a8ef	-0.08040034
243	0x3ea647cf	0.3247666
244	0x3f814fb6	1.0102451
245	0xbe88716f	-0.26649043
246	0xc0409ac1	-3.0094454
247	0xbf3ca4f6	-0.7368921
248	0x40755968	3.833582
249	0x406145cb	3.5198848
250	0x40c780bd	6.234465
251	0x40227f23	2.5390098
252	0xbdd34808	-0.10316473
253	0xbfc522d7	-1.5401257
254	0xbf3354ad	-0.7005108
255	0xbeaae432	-0.33377224

input_layer.bias f4 [64]
0	0x3fc33f3c	1.5253673
1	0xbf7c3039	-0.9851108
2	0x3fdd796c	1.730268
3	0x3fb3cb20	1.4046364
4	0xbeb0cba6	-0.3453037
5	0x3ffa119a	1.9536622
6	0xbf011db0	-0.50435925
7	0x3ff37b3b	1.9021982
8	0x3fb6d3bd	1.4283367
9	0x3f77a951	0.9674273
10	0x3fcbd057	1.5922955
11	0xbee032e1	-0.43788818
12	0x3f276d15	0.6540082
13	0x3f6115c0	0.8792381
14	0xbf005ce5	-0.50141746
15	0x3feb6dac	1.8392844
16	0x3fc39726	1.5280502
17	0xbf09914e	-0.5373734
18	0xbf1bd403	-0.6087038
19	0xbf444c2f	-0.76678747
20	0xbf4bc746	-0.7960094
21	0xbf21acb4	-0.6315415
22	0xbef51960	-0.47870922
23	0xbf06e495	-0.5269254
24	0x3f8ede90	1.1161671
25	0xbee4c8f8	-0.44684577
26	0x40002c59	2.0027068
27	0xbf866414	-1.0499291
28	0x3ffd1af6	1.9773853
29	0x40016648	2.0218678
30	0x3fb55692	1.4167044
31	0xbf064746	-0.52452505
32	0xbf027146	-0.5095409
33	0xbf42f43f	-0.7615394
34	0x3fe0fd40	1.7577286
35	0xbf21649e	-0.63044155
36	0x3f708abd	0.939617
37	0xbf37c240	-0.71780777
38	0xbf2383b2	-0.63872826
39	0x3fcd84b7	1.6056126
40	0xbf22d52d	-0.6360653
41	0xbf27b75f	-0.6551418
42	0x3f0d7d7b	0.55269593
43	0xbe8d76d2	-0.27629715
44	0xbf07632b	-0.52885693
45	0x3fb414f5	1.4068896
46	0x3f70a12a	0.93995917
47	0x3f6c959c	0.92415786
48	0xbf668a0e	-0.90054405
49	0x3fd9e42a	1.7022755
50	0x3f91fde5	1.1405607
51	0x3f016b4b	0.5055434
52	0xbf2f010c	-0.6836097
53	0x3f6ca310	0.92436314
54	0x3f6d2826	0.92639387
55	0x3f46ef09	0.7770849
56	0xbf4a53e6	-0.7903427
57	0x3ff85e0d	1.9403702
58	0xbf2bd370	-0.67119503
59	0x3fbdf0b8	1.4839087
60	0x3dd7daec	0.10539803
61	0xbf66f6ef	-0.9022054
62	0x3f1b3141	0.6062203
63	0x3f0beb3d	0.5465582

hidden_layers.0.weight f4 [64, 64]
0	0x3f4e3e84	0.8056414
1	0xbf395e98	-0.72409964
2	0x3f85534e	1.0416048
3	0x3f933bf2	1.1502669
4	0x3d9bd40e	0.076088056
5	0x3f65fffc	0.89843726
6	0xbf9b1606	-1.2116096
7	0x3f6604cc	0.8985107
8	0x3fb91c6b	1.4461797
9	0x3f73442a	0.95025885
10	0x3f6fbdec	0.9364917
11	0xbfa47fef	-1.2851542
12	0x403ee48a	2.982699
13	0x3ff78fa4	1.9340711
14	0xbf04986f	-0.51795095
15	0x3fc19ac0	1.5125351
16	0x3f0e40c7	0.5556759
17	0xbf9c068a	-1.2189496
18	0xbf4bd700	-0.7962494
19	0xbf0c1c7a	-0.5473095
20	0xbf449fff	-0.76806635
21	0xbf611c23	-0.8793356
22	0xbfc693f3	-1.55139
23	0xbeae8153	-0.34083042
24	0x3ff450c9	1.9087154
25	0x3d500970	0.05079025
26	0x3f8078fc	1.0036922
27	0xbf222d2d	-0.6335018
28	0x3f4861d8	0.782743
29	0x3f88ac2a	1.067754
30	0x3fa8d5a2	1.3190196
31	0xbff0b79f	-1.8806037
32	0xbd656660	-0.056005836
33	0xbf563385	-0.8367236
34	0x3fa2b5c8	1.2711725
35	0xbfb051a0	-1.377491
36	0x3f24ed51	0.64424616
37	0xbf0e72f3	-0.5564415
38	0xc00102ac	-2.015788
39	0x3f1b6fa2	0.60717213
40	0xbfd44dff	-1.6586303
41	0xbffcf947	-1.9763573
42	0x4014b599	2.3235838
43	0x3eb2995a	0.34882623
44	0xbf5a126a	-0.8518435
45	0x3faf4e28	1.3695726
46	0x3f24e3ca	0.6441008
47	0x3f887309	1.0660106
48	0xbf0093f7	-0.50225776
49	0x3f5b6e14	0.8571484
50	0x3f973aab	1.1814779
51	0x3f620596	0.88289773
52	0xbf8b711e	-1.0893896
53	0x3f3fafea	0.748778
54	0x3e927cef	0.28610942
55	0x3f1cbfa5	0.61229926
56	0xbf88d5f4	-1.0690293
57	0x3f6c56eb	0.92320126
58	0xbf50d4ec	-0.81574893
59	0x3f59a9a2	0.85024464
60	0x3e9ffba3	0.3124667
61	0xbf299dbb	-0.662563
62	0x4049a1e5	3.1505063
63	0x3f69eb2c	0.9137447
64	0x3f1fd224	0.62430024
65	0xbea73753	-0.32659397
66	0x3f405a93	0.75138205
67	0x3f185c3e	0.5951575
68	0x3abfad00	0.0014623702
69	0x3f932990	1.1497059
70	0xbfb68c48	-1.426156
71	0x3f1ae813	0.6051037
72	0x3fb617d1	1.4226018
73	0x3f1a3deb	0.6025073
74	0x3f79f8ff	0.9764556
75	0xbfb97db6	-1.4491489
76	0x404c3ae6	3.1910949
77	0x3ff766af	1.9328212
78	0xbf0cd537	-0.5501284
79	0x3fa28efa	1.2699883
80	0x3efa03a2	0.48830897
81	0xbfc3d066	-1.5297973
82	0xbf7f9869	-0.99841934
83	0xbf219e95	-0.631326
84	0xbf1a3eea	-0.6025225
85	0xbf554e98	-0.8332305
86	0xbfcdc0b7	-1.6074437
87	0xbeaf9318	-0.3429191
88	0x400d0743	2.2035682
89	0x3dcb648e	0.09931289
90	0x3f924e32	1.1430113
91	0xbedef46d	-0.43545857
92	0x3f1ac66a	0.60459006
93	0x3f81d5d1	1.0143377
94	0x3f85fac6	1.0467155
95	0xc0054ede	-2.0829387
96	0xbea9773f	-0.3309879
97	0xbf202003	-0.62548846
98	0x3f950bef	1.1644267
99	0xbfbfe57d	-1.4991909
100	0x3ee52612	0.44755608
101	0xbf72b4c5	-0.9480708
102	0xc0142531	-2.31477
103	0x3ea36dea	0.31919795
104	0xc01506b4	-2.3285341
105	0xc01e094b	-2.4693172
106	0x4025e8b5	2.5923283
107	0xbed92bbd	-0.42416182
108	0xbf37344a	-0.7156416
109	0x3f9d14b1	1.227194
110	0x3e37b828	0.17941344
111	0x3e2c5b5e	0.16831729
112	0xbecba317	-0.39772865
113	0x3f4b33e9	0.79376084
114	0x3f79c504	0.97566247
115	0x3f8328f2	1.024687
116	0xbf5e4c05	-0.86834747
117	0x3eb3eff6	0.35144013
118	0x3e5845ef	0.21120428
119	0x3e9cd293	0.30629405
120	0xbf339917	-0.7015547
121	0x3f373a29	0.7157312
122	0xbf4444cc	-0.76667476
123	0x3f492cc6	0.78583944
124	0x3e9cba38	0.30610824
125	0xbf05535c	-0.5208032
126	0x404e9531	3.227856
127	0x3f19dd34	0.60103154
128	0x3dfd82f8	0.12378496
129	0x3eaf35a2	0.34220606
130	0x3e036b98	0.12834013
131	0xbeb73385	-0.35781494
132	0x3d47c780	0.048774242
133	0x3d10f9be	0.035394423
134	0x3fc5ac20	1.5443153
135	0x3dfce1e8	0.12347776
136	0xbe6b928f	-0.23005126
137	0x3e144f36	0.14483342
138	0xbe2652d7	-0.16242538
139	0x3fbc1b59	1.4695846
140	0x3e6d03ca	0.23145977
141	0xbf8d33cf	-1.1031436
142	0x3e41c43a	0.1892251
143	0xbf1a1d19	-0.6020065
144	0x3eca1179	0.39466456
145	0x3fc107e7	1.5080537
146	0x3f62142c	0.8831203
147	0x3f325095	0.6965421
148	0xbddd83c4	-0.10816148
149	0x3f487b28	0.7831292
150	0x3fcd9922	1.6062357
151	0x3d212835	0.039344985
152	0xbed00743	-0.4063054
153	0xbdef6e1e	-0.11690925
154	0xbe2b1337	-0.16706549
155	0xbe228352	-0.15870407
156	0x3d504b40	0.050853014
157	0x3ce319f2	0.027722333
158	0x3f15a84d	0.5845993
159	0x3fe03517	1.7516202
160	0x3d8a25a1	0.067454584
161	0xbef312e7	-0.4747536
162	0xbf6c06f3	-0.92198104
163	0x3fb7fbff	1.4373778
164	0xbcf97018	-0.030448958
165	0xbfb6e09b	-1.4287294
166	0x3fe9f7c3	1.8278736
167	0x3ea65919	0.3248985
168	0x40095a19	2.1461241
169	0x4001623d	2.021621
170	0xbe4d506f	-0.20050214
171	0xbf1d7575	-0.6150735
172	0x3f780f6c	0.9689853
173	0x3eb2fdb9	0.349592
174	0x3e96d7ac	0.2946142
175	0xc09661c5	-4.6994348
176	0xbbf41b3f	-0.007449537
177	0x3e32742c	0.17427129
178	0x3f70a8b2	0.9400741
179	0xbfa7c045	-1.3105551
180	0xbf0d8385	-0.5527881
181	0x3ebc689b	0.36798558
182	0x3e76cf1a	0.2410244
183	0x3ef479af	0.47749087
184	0xbdff671c	-0.124708384
185	0xbe91ba80	-0.284626
186	0xbf076f48	-0.52904177
187	0xbe00ef90	-0.12591386
188	0x3f061fa1	0.5239201
189	0x3dae64d8	0.08515328
190	0x3ee5f5d6	0.4491412
191	0x3d9d45c0	0.076793194
192	0x3e421f06	0.18957147
193	0xc0417b6c	-3.023158
194	0xbd0065ed	-0.031347204
195	0xbe4e90f2	-0.2017248
196	0xbc1b7910	-0.009489313
197	0xbd220199	-0.039552305
198	0xbee09e88	-0.4387095
199	0xbd993146	-0.07480101
200	0x3f02f391	0.511529
201	0xbe627d2b	-0.2211806
202	0xbed981ed	-0.42481938
203	0xbebad279	-0.36488703
204	0xc0287e87	-2.6327226
205	0x3f4b615c	0.79445434
206	0xbff2cab7	-1.8968114
207	0x3f16ef3e	0.58958805
208	0x3df68db4	0.120387465
209	0xbf317900	-0.69325256
210	0x3caddd24	0.021223612
211	0xbe44180e	-0.19149801
212	0xbeae0916	-0.33991307
213	0xbe13098c	-0.1435911
214	0xbf296c99	-0.6618133
215	0xbdbd9ce7	-0.09258442
216	0x3f222c0f	0.6334848
217	0x3d22f64c	0.03978567
218	0xbed01621	-0.40641883
219	0xbfe2fd2d	-1.7733513
220	0xbefcfe09	-0.49412563
221	0xbe81c0a5	-0.2534229
222	0x3dec346c	0.11533436
223	0x3d012ff2	0.031539865
224	0xbcdca668	-0.026934817
225	0x3ea60ee7	0.32433245
226	0x3f1262e2	0.57182133
227	0xbeb94c10	-0.36190844
228	0xbd672d92	-0.056439944
229	0xbfb153c8	-1.3853693
230	0xbe4fbb0b	-0.20286195
231	0x3db0958c	0.08622274
232	0xbea36876	-0.31915635
233	0xbe5d52be	-0.21613595
234	0xbfb36780	-1.4015961
235	0x3fa051e1	1.2524987
236	0xbf2e0785	-0.67980224
237	0x3efe5c08	0.4967959
238	0xbdca765f	-0.09885859
239	0x3e6b92b2	0.23005179
240	0xc0345a18	-2.817999
241	0xbe5e513b	-0.21710674
242	0x3c2e1bba	0.010626728
243	0xc02c944e	-2.6965518
244	0xbf46f970	-0.7772436
245	0xbe5e089d	-0.21682973
246	0xbceaa682	-0.02864385
247	0xbe85905e	-0.26086706
248	0x3eadd4b1	0.33951333
249	0x3e8dde73	0.27708778
250	0xc0497a1e	-3.1480784
251	0xbdcb0e8b	-0.09914883
252	0x3e434cc9	0.1907226
253	0xc0067aba	-2.1012406
254	0xc037c333	-2.871289
255	0xbfca925c	-1.5825915

hidden_layers.0.bias f4 [64]
0	0x3f1bd2e4	0.6086867
1	0x3ec67cc1	0.38767055
2	0x3e6f2527	0.23354016
3	0x3c615aec	0.013754588
4	0x3e13c596	0.14430842
5	0x3f2c3123	0.67262477
6	0x3dc768b3	0.09736767
7	0x3e35bd86	0.17748079
8	0xbca8078c	-0.020511411
9	0x3f2952f5	0.6614221
10	0x3e7f1090	0.24908662
11	0x3efea218	0.49733043
12	0x3eb3f694	0.35149062
13	0xbccc3f1e	-0.02493244
14	0x3eba3a89	0.36372784
15	0x3f0d05ac	0.5508678
16	0x3f3c4993	0.73549765
17	0x3d83a0d5	0.06427161
18	0x3f23aa5a	0.6393181
19	0x3f3ea519	0.7447067
20	0x3e33231c	0.17493862
21	0x3e804f4c	0.250605
22	0x3f234cf6	0.6378931
23	0xbda494e4	-0.08036211
24	0xbdda1040	-0.10647631
25	0x3ec4bb19	0.38423994
26	0x3e869fa5	0.26293674
27	0x3c27b1f1	0.010235296
28	0x3f267553	0.6502277
29	0xbc875922	-0.016521994
30	0x3f4501e0	0.76955986
31	0x3f618560	0.8809414
32	0x3e938e2c	0.28819406
33	0x3eb59855	0.35467783
34	0x3ee68cbe	0.45029253
35	0x4005b73b	2.0893085
36	0x3f51112e	0.8166684
37	0xbc8e6196	-0.017380517
38	0x3f287ba4	0.6581366
39	0x3f076baf	0.5289869
40	0x3e8390c6	0.2569639
41	0xbc9bc27a	-0.019013632
42	0x3ed6ad59	0.4192913
43	0x3f2ee321	0.6831532
44	0xbf18030b	-0.59379643
45	0x3f5ee698	0.8707061
46	0x3f1f36ae	0.6219281
47	0x3f2b6468	0.6695008
48	0x3e36f6b7	0.17867552
49	0x3e217c9c	0.15770191
50	0x3ee6fbc7	0.45113966
51	0x3e0dd135	0.13849337
52	0x3f7ed221	0.9953938
53	0x3eb60aed	0.3555521
54	0x3f5848c1	0.84486014
55	0x3e882f58	0.2659862
56	0xbc992c47	-0.01869787
57	0x3dd771da	0.10519762
58	0x3f0eac69	0.5573183
59	0x3d9b58a1	0.07585264
60	0x3eb83072	0.3597446
61	0x3edb4c4c	0.42831647
62	0xbe0aa652	-0.13540009
63	0x3e8b1520	0.27164555

output_value.weight f4 [1, 64]
0	0x4009f9b5	2.155866
1	0x4043a509	3.056948
2	0xbfc921e0	-1.5713463
3	0xc01fa1c5	-2.4942486
4	0xbfc8bb0e	-1.5682085
5	0x404d6b82	3.2096868
6	0xbdd57ca5	-0.10424165
7	0xbf766607	-0.9624943
8	0xbfceebb3	-1.616568
9	0x4068e98c	3.6392546
10	0x40604ba1	3.504616
11	0x403fc769	2.996546
12	0x405b76e0	3.4291306
13	0xbf35539c	-0.708307
14	0xbf6920af	-0.91065496
15	0x405eb306	3.4796767
16	0xbeb3044c	-0.34964216
17	0xbc4a9556	-0.012364706
18	0x404a283a	3.1587052
19	0x40522299	3.2833617
20	0xbfbc87cd	-1.4728943
21	0x409f0835	4.969752
22	0x4042890c	3.0396147
23	0x3b98c253	0.004661837
24	0x3d9ba4e9	0.075998135
25	0x406b36d2	3.675221
26	0x40924511	4.570931
27	0xbfc2d53d	-1.5221325
28	0x4051b3e6	3.2766051
29	0xbc722f55	-0.014781793
30	0x403fae09	2.9949973
31	0x403bef15	2.9364674
32	0xbd38bb58	-0.04510054
33	0x4081951a	4.049451
34	0x403375e4	2.8040705
35	0x3fe51656	1.7897441
36	0xbea4bc02	-0.3217469
37	0xbd802c23	-0.062584184
38	0x40562e9e	3.3465953
39	0x4068806f	3.632839
40	0xbf60980b	-0.87732
41	0x3cb7dae6	0.022443246
42	0x403b68d6	2.9282737
43	0x405b90bd	3.4307091
44	0x3f86b509	1.0523998
45	0x4083734d	4.107825
46	0x402f756f	2.7415426
47	0x40522817	3.283697
48	0xbf7691b9	-0.96316105
49	0x405e8a44	3.477189
50	0x404a1b9a	3.1579347
51	0xbf7dec54	-0.99188733
52	0x402ea4fe	2.7288203
53	0xbf872b81	-1.0560151
54	0x4069bdb8	3.6522045
55	0xbf54010f	-0.82814115
56	0x3cc06348	0.023484841
57	0xbffc351a	-1.9703705
58	0x3f832581	1.024582
59	0x3cd4b67a	0.025965918
60	0xbf90545e	-1.1275747
61	0x403db0ff	2.963928
62	0x3c5754a2	0.013142737
63	0xbfaee4e8	-1.3663607

output_layer.weight f4 [2, 64]
0	0x3ee881b6	0.45411462
1	0x3e5564a0	0.20839167
2	0x3e20244a	0.15638843
3	0x3f1b4427	0.6065087
4	0x3db85adc	0.09001705
5	0x3eaf1791	0.34197667
6	0xbe062e3c	-0.13103575
7	0x3fe89b61	1.8172418
8	0x3e80ffbf	0.2519512
9	0x3ef5277c	0.47881687
10	0xbcbc8745	-0.02301372
11	0xbfdae30c	-1.7100539
12	0x3c3d72fa	0.011563057
13	0xbe6a7f4a	-0.2290012
14	0xbfcf7c10	-1.6209736
15	0x3dd95379	0.10611624
16	0x401d23c0	2.455307
17	0xbc3b0862	-0.011415573
18	0x3eccedc7	0.4002516
19	0x3ee84569	0.45365456
20	0x3d2abd31	0.041684333
21	0xbefd932d	-0.4952635
22	0x3f28262e	0.6568326
23	0xbd9e214f	-0.07721197
24	0x3edbc3ac	0.42922723
25	0x3c45389f	0.012037425
26	0x3e71da90	0.23618531
27	0xbea8ee08	-0.32994103
28	0x3ec0c69b	0.37651524
29	0xbd0fbb32	-0.035090633
30	0xbf2c64a4	-0.67341065
31	0xbff4c72f	-1.9123286
32	0xbe7b8fe8	-0.24566615
33	0x3d4ff34a	0.050769128
34	0x3e85c1aa	0.26124316
35	0x3fb50fd2	1.4145453
36	0x4033f966	2.812097
37	0x3d6974ce	0.05699616
38	0xbf272167	-0.6528534
39	0x3e271c02	0.16319278
40	0x3fe55a78	1.7918234
41	0xbd1a419e	-0.037660234
42	0x3e29cfdc	0.16583198
43	0x3ee52c49	0.4476035
44	0x3fb9c31c	1.4512668
45	0xbf016850	-0.50549793
46	0x3ec5d0fb	0.38636002
47	0xc05d5883	-3.4585273
48	0xbfe78179	-1.8086387
49	0xbdef1f77	-0.11675923
50	0x3e347998	0.1762451
51	0xbfebafb1	-1.8412992
52	0x3fb7dc4b	1.4364103
53	0xbfc1f564	-1.5153012
54	0x3f061185	0.5237048
55	0xbfed2873	-1.8527969
56	0xb9e604f0	-0.00043872697
57	0x3eeb5f69	0.4597123
58	0x3b96ac40	0.0045981705
59	0xbc5d9e48	-0.013526507
60	0xbf9f3db9	-1.2440711
61	0x3e1c1371	0.15241791
62	0x3c099774	0.008397926
63	0x3fa70a3e	1.3050001
64	0xbee44d40	-0.44590187
65	0xbe91de43	-0.28489885
66	0xbe3de622	-0.1854482
67	0xbef5a703	-0.47978982
68	0xbe721892	-0.23642185
69	0xbe94c8c3	-0.2905942
70	0x3d3b37c9	0.045707498
71	0xbff585b4	-1.9181428
72	0xbe3fbab7	-0.1872357
73	0xbecafc30	-0.3964553
74	0x3d984063	0.07434156
75	0x3fcd3256	1.6030986
76	0x3e2c6e05	0.16838844
77	0x3dd1b716	0.10239999
78	0x3fdd398a	1.7283185
79	0xbe6f7116	-0.23382983
80	0xc0214c99	-2.5203001
81	0x3da6c69a	0.08143349
82	0xbf08a42e	-0.5337552
83	0xbef5f1c1	-0.48036006
84	0x3c38d530	0.011281297
85	0x3ed8980b	0.423035
86	0xbf0adf80	-0.54247284
87	0xbda17a3d	-0.07884643
88	0xbe9fef4a	-0.3123725
89	0xbb820d56	-0.003968875
90	0xbe4746d6	-0.19460616
91	0x3e12a9cb	0.14322583
92	0xbe9910c3	-0.298956
93	0x3d038d4a	0.032117166
94	0x3f30aeb6	0.6901659
95	0x400094cd	2.009082
96	0x3e877dec	0.26463258
97	0x3d812bfd	0.06307218
98	0xbeb6ac86	-0.356785
99	0xbfaafb26	-1.3357894
100	0xc03420ab	-2.814494
101	0x3dde785f	0.10862803
102	0x3ef146b2	0.4712425
103	0xbe0cb33a	-0.13740245
104	0xbfec9dcf	-1.8485659
105	0xbcf03d14	-0.029326
106	0xbdbb8e41	-0.09157992
107	0xbefc74bc	-0.4930781
108	0xbfaa4c3a	-1.3304513
109	0x3f02ffdd	0.51171666
110	0xbea4d3b1	-0.32192758
111	0x4062a691	3.5414164
112	0x3fe32ffd	1.774902
113	0x3d135d32	0.03597755
114	0xbe52844c	-0.2055828
115	0x3ff14fad	1.885244
116	0xbfbbf651	-1.4684545
117	0x3fcd35c6	1.6032035
118	0xbf113bfd	-0.5673216
119	0x3fd73961	1.6814386
120	0xbdb985c7	-0.09058719
121	0xbf1b42b1	-0.6064864
122	0x3e3fcfec	0.1873166
123	0x3dc40c80	0.09572697
124	0x3f9e6fa1	1.2377816
125	0xbe3b58d3	-0.18295603
126	0x3ca0b0c5	0.01961554
127	0xbfa0c39e	-1.2559698

output_layer.bias f4 [2]
0	0x3f9401ea	1.1563084
1	0xbf9f55ce	-1.244806
