chapter_06/checkpoints/checkpoint_500.pth (torch_old, 19970 bytes, 7 tensors)

input_layer.weight f4 [64, 4]
0.0052217073 0.49325776 0.30707917 0.28440624 0.33328375 -0.33649015 -3.1330693 -1.0620598
-0.27923328 0.5661678 0.6283623 0.45717716 -0.47158653 -0.48690563 -0.13586801 -0.42797422
-0.3814317 0.32739538 -0.11791557 0.16049385 1.8051003 0.08423313 1.818794 0.78637505
-0.70141894 0.10735843 1.4567497 0.23858345 0.614175 0.0118123805 0.65630144 -0.012433738
2.1929054 1.3349202 1.4884151 0.6346359 -0.56710863 -0.18677753 0.1947162 -0.12234745
0.5079443 0.14301938 0.35369158 0.9267096 -0.49891636 -0.2608379 1.4489673 0.08627926
3.4949155 2.4581702 4.437373 1.8718091 1.0327914 1.7583569 1.5802635 0.08992724
0.40542358 -0.2923759 -2.0633106 -0.86887074 0.34522995 1.1555179 0.15416461 -0.44118536
-0.1778144 0.24366237 0.30077913 -0.14270735 -0.97453105 -0.1103658 1.8539592 0.2857012
-0.9024169 -0.42981777 1.5666188 0.1845084 -0.19542082 -0.56390333 1.8968171 0.6928913
0.32564774 -0.26534864 -2.4448004 -0.67926353 -0.6256651 -0.35412556 1.306417 0.70868933
-0.4618098 0.2589505 1.4763006 0.4182385 0.10679829 0.28284827 -0.05504413 0.18391277
3.594093 1.8379668 1.8327662 0.75711477 0.3809386 -0.3916161 0.04324448 -0.28152746
0.2645904 -0.11146561 1.0370965 0.7627546 0.43011338 -0.4918235 -2.4741948 -0.94232947
-0.40861213 -0.7789181 1.9470644 0.16726816 -0.108972244 0.1621487 1.1506951 0.7154443
-0.159236 0.40987003 1.5715384 -0.09063403 -0.30819535 -0.13679898 2.7273417 0.261602
0.06564653 0.30023044 -0.07634145 0.1924403 0.51001304 -0.031102592 -2.1966724 -0.96035075
1.5379505 0.9474794 0.28142875 0.14011255 -0.45039558 -0.03041139 2.2242439 0.5338344
0.24101567 -0.32265547 -0.19108647 -0.045220334 -0.46906966 -0.12491032 -1.881228 -0.535984
-0.8182665 0.2731794 2.369471 0.4143864 -0.16521558 0.35382763 -0.042769983 0.14078467
-0.88623893 0.44836983 1.5538112 0.49030676 -0.8165739 0.317817 2.2424521 0.517593
2.8735187 2.1781445 3.04339 1.1912081 0.88206017 -0.2085517 -2.5609884 -0.80040574
-0.8962547 -0.29388312 1.4495317 0.28622568 -0.080564626 0.57517517 1.3128045 -0.3497258
-0.22429936 -0.16725339 -0.16048484 0.040567156 0.7638545 -1.1287676 -3.4454267 -1.061128
0.52155143 -0.36331305 -2.7410524 -0.81472033 0.3702827 -0.14547937 1.2813083 0.32999268
-0.18882501 0.32047415 1.2523553 -0.04885155 -1.0878222 -0.62925255 -0.5346361 -0.34609503
0.15924487 -0.2802214 -2.7592416 -0.5673725 0.24849588 -0.11776031 0.71338636 -0.19385345
0.695266 -0.34475398 -0.44462124 0.21189907 -0.5187197 -0.17510866 1.0689638 -0.09910859
0.5644397 -0.24533266 -2.1288438 -0.8974498 0.3396312 0.2049231 0.0048490735 -0.33352944
0.14912179 -0.36688566 -2.560127 -1.0402948 0.74309176 0.16283275 -0.13760479 0.91637415
0.26744354 -0.09420508 -0.34521908 0.020075023 0.69195366 -0.4104618 -2.7831707 -0.70927125
2.7004042 2.1125796 4.24402 1.4775903 -0.370003 -0.8717637 0.105589814 -0.38117418
00000000: db1a ab3b 488c fc3e 7b39 9d3e b29d 913e
00000010: 2ba4 aa3e 7048 acbe 3584 48c0 93f1 87bf
00000020: aaf7 8ebe 5ff0 103f 5adc 203f 2013 ea3e
00000030: ca73 f1be b24b f9be fc20 0bbe 701f dbbe
00000040: 044b c3be 5ea0 a73e b87d f1bd 8058 243e
00000050: 870d e73f 6b82 ac3d 3ece e83f e04f 493f
00000060: 3190 33bf bdde db3d c676 ba3f 384f 743e
00000070: 933a 1d3f b788 413c 5f03 283f e1b6 4bbc
00000080: 9058 0c40 aade aa3f 6384 be3f 8077 223f
00000090: 082e 11bf 9c42 3fbe af63 473e 4d91 fabd
000000a0: a308 023f ac73 123e 1017 b53e d73c 6d3f
000000b0: f771 ffbe 8c8c 85be c377 b93f 2eb3 b03d
000000c0: b2ac 5f40 a952 1d40 f6fe 8d40 7197 ef3f
000000d0: 8232 843f d711 e13f 1346 ca3f c62b b83d
000000e0: ae93 cf3e 4bb2 95be 480d 04c0 506e 5ebf
000000f0: fbc1 b03e 03e8 933f 54dd 1d3e 0ce3 e1be
00000100: fa14 36be a182 793e b9ff 993e e021 12be
00000110: de7a 79bf 7707 e2bd 894e ed3f 6d47 923e
00000120: cb04 67bf 1311 dcbe f786 c83f c5ef 3c3e
00000130: 651c 48be f85b 10bf e7ca f23f 5361 313f
00000140: 4dbb a63e c7db 87be 9c77 1cc0 37e4 2dbf
00000150: 972b 20bf f24f b5be ac38 a73f aa6c 353f
00000160: 5672 ecbe 2995 843e 6bf7 bc3f 5b23 d63e
00000170: 10b9 da3d 7dd1 903e f475 61bd a153 3c3e
00000180: 9f05 6640 7f42 eb3f 1598 ea3f 46d2 413f
00000190: 620a c33e e881 c8be 2021 313d 5e24 90be
000001a0: 6578 873e 1548 e4bd 94bf 843f e343 433f
000001b0: d237 dc3e 4ad0 fbbe 3559 1ec0 813c 71bf
000001c0: 9c35 d1be 2d67 47bf 6839 f93f 5848 2b3e
000001d0: d72c dfbd 4f0a 263e fa49 933f 5c27 373f
000001e0: c30e 23be 7cda d13e 2c28 c93f 569e b9bd
000001f0: c8cb 9dbe 0815 0cbe c48c 2e40 b3f0 853e
00000200: b071 863d ceb7 993e e858 9cbd 120f 453e
00000210: 3790 023f ddca febc 4896 0cc0 8cd9 75bf
00000220: 90db c43f 038e 723f 6e17 903e aa79 0f3e
00000230: 409a e6be 4f21 f9bc 035a 0e40 5fa9 083f
00000240: d0cc 763e 1933 a5be 2cac 43be f538 39bd
00000250: e629 f0be fbd0 ffbd 14cc f0bf 3f36 09bf
00000260: ea79 51bf 2cde 8b3e 6aa5 1740 742a d43e
00000270: 462e 29be e528 b53e 942f 2fbd db29 103e
00000280: 8ee0 62bf bb90 e53e 49e3 c63f 7d09 fb3e
00000290: fd0a 51bf e9b8 a23e 5684 0f40 fa80 043f
000002a0: bbe7 3740 b866 0b40 e7c6 4240 8279 983f
000002b0: b2ce 613f 948e 55be 3ce7 23c0 64e7 4cbf
000002c0: f370 65bf d977 96be 418a b93f 2c8c 923e
000002d0: 11ff a4bd ae3e 133f fa09 a83f 430f b3be
000002e0: bbae 65be 7944 2bbe 2356 24be bf29 263d
000002f0: f88b 433f 757b 90bf df81 5cc0 0bd3 87bf
00000300: 6584 053f 2b04 babe 676d 2fc0 8391 50bf
00000310: b295 bd3e 8bf8 14be e901 a43f cdf4 a83e
00000320: 585b 41be 3015 a43e 2e4d a03f 9018 48bd
00000330: c23d 8bbf b216 21bf e9dd 08bf 5e33 b1be
00000340: 1611 233e 2e79 8fbe 6a97 30c0 533f 11bf
00000350: b475 7e3e 512c f1bd 7da0 363f 8581 46be
00000360: f4fc 313f 9883 b0be 65a5 e3be 12fc 583e
00000370: d0ca 04bf af4f 33be ced3 883f 72f9 cabd
00000380: 1f7f 103f 7c38 7bbe fa3e 08c0 45bf 65bf
00000390: 24e4 ad3e 5cd7 513e fae4 9e3b 5fc4 aabe
000003a0: 62b3 183e 70d8 bbbe 1fd9 23c0 6128 85bf
000003b0: 433b 3e3f a1bd 263e 45e8 0cbe 7f97 6a3f
000003c0: 5cee 883e 98ee c0bd 8ec0 b0be 6074 a43c
000003d0: e023 313f 0d28 d2be 781f 32c0 cd92 35bf
000003e0: 6cd3 2c40 8134 0740 03cf 8740 ae21 bd3f
000003f0: 0971 bdbe e82b 5fbf 793f d83d 4329 c3be

input_layer.bias f4 [64]
0.6661909 -0.92570275 1.0001537 1.1188956 -0.3453037 1.3487668 -0.4205355 1.0047066
0.84296954 0.75571835 0.9078648 -0.044451013 0.07557181 0.3335239 -0.5906783 0.8529494
0.61902404 -0.15337871 -0.07859794 -0.34079188 -0.86778414 0.0027155909 -0.39566764 -0.50949204
0.63959557 -0.44684577 1.3514243 -1.1137308 1.5422468 1.3362485 0.76847136 -0.28323698
-0.488579 -0.91378313 1.0328032 -0.34509736 0.95229703 -0.63369834 -0.31412533 0.64546853
-0.3734171 -0.3803913 -0.013227136 0.25047585 0.2493759 0.607486 0.99473196 1.3332458
-0.8925635 1.0025996 0.505519 0.01859733 -0.92110217 0.69007605 0.5910479 0.64276654
-0.95899224 0.9242935 -0.79585624 0.77466273 -0.24431562 -0.9346729 0.016502187 0.0779693
00000000: 7d8b 2a3f dbfa 6cbf 0905 803f f937 8f3f
00000010: a6cb b0be 64a4 ac3f 6e50 d7be 3a9a 803f
00000020: dacc 573f c276 413f d469 683f 4412 36bd
00000030: 65c5 9a3d a5c3 aa3e b136 17bf e45a 5a3f
00000040: 5c78 1e3f 4f0f 1dbe f5f7 a0bd 467c aebe
00000050: 1a27 5ebf 0ef8 313b f394 cabe 126e 02bf
00000060: 89bc 233f f8c8 e4be 79fb ac3f bb8e 8ebf
00000070: 5868 c53f 310a ab3f 8aba 443f 7004 91be
00000080: 0727 fabe b1ed 69bf e532 843f 9ab0 b0be
00000090: bdc9 733f 0e3a 22bf 09d5 a0be 6d3d 253f
000000a0: 8730 bfbe a6c2 c2be a1b6 58bc 5f3e 803e
000000b0: 655c 7f3e 3484 1b3f c1a6 7e3f cca7 aa3f
000000c0: 0b7f 64bf 2f55 803f b169 013f 6e59 983c
000000d0: 5acd 6bbf d3a8 303f ea4e 173f 598c 243f
000000e0: 8480 75bf 809e 6c3f 3cbd 4bbf 4c50 463f
000000f0: e02d 7abe b946 6fbf 982f 873c 5eae 9f3d

hidden_layers.0.weight f4 [64, 64]
0.07909465 -0.21255425 0.28375256 0.21613872 0.076088056 0.024552878 0.0144532565 0.21476829
0.4391912 0.113337755 0.18553096 -0.21766214 1.6477364 0.48671353 -0.043118566 0.30674526
0.09370667 -0.18421197 0.17355733 0.058839116 -0.24797238 -0.05088828 -0.38636136 -0.24133831
0.69371724 0.05079025 0.23007302 -0.10950664 0.17332637 0.27777973 0.5618269 -0.75374913
0.008061053 -0.31216246 0.335452 -0.33160505 -0.0058202087 0.014662581 -0.7877199 0.101532824
-0.5538335 -0.79993343 0.9835531 -0.050920427 -0.14963931 0.47733432 0.13331628 0.19416294
0.022442572 0.14827737 0.49274626 0.46149233 -0.29793742 0.21960337 0.0694994 0.1206385
-0.5305269 0.21228053 -0.12348425 0.13064353 0.06512673 -0.15183929 1.8328379 0.39802122
-0.16487071 -0.010031788 -0.073647015 -0.042822693 0.0014623702 0.2557041 -0.2609055 -0.05084948
0.35095063 -0.077939734 0.14499626 -0.3451208 1.7417397 0.33805773 -0.071626194 0.06302708
0.05031387 -0.51647764 -0.09028815 -0.10389989 -0.2625682 -0.1944596 -0.50697774 -0.24530411
0.9203102 0.09931289 0.34488454 -0.104679 0.011134337 0.19087952 0.19508678 -1.0562962
-0.26872543 -0.25486422 0.22917525 -0.5574209 -0.046884853 -0.26508746 -1.1348134 -0.20132144
-1.2561967 -1.3706758 1.1194673 -0.23289175 -0.23173645 0.26168096 -0.21152297 -0.05450338
-0.06839001 0.04031756 0.14694053 0.6659724 -0.21716645 -0.120474786 0.08847139 -0.13201003
-0.35212666 0.09392017 -0.1319082 -0.029183015 0.017387956 -0.18877655 1.7659374 0.28975576
0.13607025 0.34220606 0.24215904 -0.13254066 0.048774242 0.20865409 0.47259784 0.18670379
-0.15835421 0.26316378 -0.029809328 0.60419655 0.2584501 -1.0726192 0.1892251 -0.32932985
0.25187874 0.7653415 0.1969698 0.3037792 -0.10816148 0.29159272 0.57614857 0.039344985
-0.37917367 -0.11690925 0.005675987 -0.15870407 0.27283785 0.19984324 0.61486375 0.7672802
0.067454584 -0.4747536 -0.77671754 0.50425947 -0.11679962 -0.80745214 0.76452976 0.20783389
1.1609731 1.0148591 -0.2917184 -0.6150735 0.4438688 0.49465594 0.098245375 -3.7925508
-0.007449537 0.29052517 0.89179045 -1.3597921 -0.0858334 0.14746168 -0.15378469 0.2958052
-0.124708384 -0.11530373 -0.062254615 -0.024064966 0.099445 0.08515328 0.42821154 -0.15001273
0.12882248 -3.0912328 0.07568567 0.027179955 -0.009489313 0.13435608 -0.42580122 -0.015332044
0.25226596 0.0088703465 -0.083699726 -0.4336118 -1.5366281 0.75579774 -2.3666725 0.39370736
0.24003394 -0.7499401 -0.044597637 -0.07062075 -0.44010022 -0.044995498 -0.5021519 -0.09258442
0.31868494 0.03978567 -0.041235976 -1.8533562 0.05648342 0.04761262 0.19969139 0.10285655
-0.026934817 -0.09823369 0.37768185 -0.2500231 0.120445624 -1.3739697 -0.118538186 0.14202031
-0.25433683 -0.11644935 -0.47767246 0.7540407 -0.19466361 0.4397202 0.11612918 0.22688115
-2.8500366 0.06699097 0.064391345 -1.3439778 -0.8502642 -0.01832715 0.10428827 0.10132344
0.100575976 0.297999 -3.2551363 0.11017083 0.021952808 -2.1602256 -1.6472675 -0.23013419
00000000: 60fc a13d d2a7 59be 0448 913e 7853 5d3e
00000010: 0ed4 9b3d 1e23 c93c 5acd 6c3c 38ec 5b3e
00000020: abdd e03e a01d e83d d4fb 3d3e d3e2 5ebe
00000030: 07e9 d23f 8432 f93e 189d 30bd b70d 9d3e
00000040: 48e9 bf3d 10a2 3cbe 03b9 313e 4901 713d
00000050: 79ec 7dbe 3b70 50bd 28d1 c5be 6421 77be
00000060: 7497 313f 7009 503d 4398 6b3e 0445 e0bd
00000070: 787c 313e 2539 8e3e e3d3 0f3f b4f5 40bf
00000080: 8212 043c c2d3 9fbe 5dc0 ab3e 23c8 a9be
00000090: 73b7 bebb 523b 703c 03a8 49bf 71f0 cf3d
000000a0: 08c8 0dbf 70c8 4cbf 23ca 7b3f f091 50bd
000000b0: 0c3b 19be 2a65 f43e 1084 083e a6d2 463e
000000c0: 7cd9 b73c 06d6 173e 3d49 fc3e b948 ec3e
000000d0: 418b 98be b5df 603e b455 8e3d 5111 f73d
000000e0: 9cd0 07bf 1160 593e 4fe5 fcbd 6bc7 053e
000000f0: 2a61 853d c27b 1bbe 6f9a ea3f 70c9 cb3e
00000100: ded3 28be 5e5c 24bc 3fd4 96bd d966 2fbd
00000110: 00ad bf3a a6eb 823e 6895 85be 8b47 50bd
00000120: cdaf b33e de9e 9fbd e679 143e acb3 b0be
00000130: 54f1 de3f e715 ad3e c1b0 92bd 5714 813d
00000140: eb15 4e3d e137 04bf fee8 b8bd 77c9 d4bd
00000150: 576f 86be 6b20 47be 4bc9 01bf 0031 7bbe
00000160: 7399 6b3f 8e64 cb3d b594 b03e f261 d6bd
00000170: cb6c 363c ec75 433e d4c4 473e b734 87bf
00000180: 6196 89be 907d 82be ebac 6a3e 23b3 0ebf
00000190: 550a 40bd 8bb9 87be 9141 91bf 3527 4ebe
000001a0: 0ecb a0bf 4e72 afbf b44a 8f3f 2d7b 6ebe
000001b0: 524c 6dbe 0cfb 853e 7a99 58be f03e 5fbd
000001c0: 1010 8cbd 0724 253d 9477 163e 2b7d 2a3f
000001d0: e260 5ebe 7cbb f6bd 7d30 b53d a32d 07be
000001e0: f249 b4be 3859 c03d f112 07be 3811 efbc
000001f0: 3071 8e3c a44e 41be 3d0a e23f de5a 943e
00000200: 0056 0b3e a235 af3e 8af8 773e bdb8 07be
00000210: 80c7 473d 6ba9 553e 58f8 f13e 472f 3f3e
00000220: 9b27 22be 67bd 863e b132 f4bc a0ac 1a3f
00000230: 9253 843e 964b 89bf 3ac4 413e ec9d a8be
00000240: 40f6 803e 6ced 433f 74b2 493e f388 9b3e
00000250: c483 ddbd a44b 953e 797e 133f 3528 213d
00000260: 0d23 c2be 1e6e efbd a1fd b93b 5283 22be
00000270: 67b1 8b3e b5a3 4c3e b667 1d3f 7a6c 443f
00000280: a125 8a3d e712 f3be f6d6 46bf 2617 013f
00000290: a434 efbd 2fb5 4ebf 39b8 433f 68d2 543e
000002a0: c49a 943f e7e6 813f 1d5c 95be 7575 1dbf
000002b0: c542 e33e 8b43 fd3e df34 c93d 27b9 72c0
000002c0: 3f1b f4bb b7bf 943e 614c 643f ab0d aebf
000002d0: 6cc9 afbd 3200 173e bc79 1dbe c773 973e
000002e0: 1c67 ffbd 5d24 ecbd b2fe 7ebd e423 c5bc
000002f0: d2a9 cb3d d864 ae3d 8b3e db3e f09c 19be
00000300: 0aea 033e c2d6 45c0 1701 9b3d 7fa8 de3c
00000310: 1079 1bbc a494 093e 9e02 dabe 4133 7bbc
00000320: 0129 813e ee54 113c c36a abbd 5e02 debe
00000330: 3bb0 c4bf f67b 413f 9077 17c0 0394 c93e
00000340: 75cb 753e 13fc 3fbf 03ac 36bd 9da1 90bd
00000350: d154 e1be 334d 38bd 078d 00bf e79c bdbd
00000360: ac2a a33e 4cf6 223d 0ee7 28bd c73a edbf
00000370: 295b 673d 7305 433d e67b 4c3e 74a6 d23d
00000380: 68a6 dcbc bf2e c9bd 845f c13e 0703 80be
00000390: 32ac f63d 3dde afbf 26c4 f2bd c66d 113e
000003a0: 7038 82be ff7c eebd 7c91 f4be d008 413f
000003b0: e655 47be 0223 e13e 23d5 ed3d 8853 683e
000003c0: 0067 36c0 9032 893d 9cdf 833d 7707 acbf
000003d0: eaaa 59bf d222 96bc 1795 d53d aa82 cf3d
000003e0: c7fa cd3d 5393 983e 2754 50c0 3ea1 e13d
000003f0: 60d6 b33c 2341 0ac0 a9d9 d2bf 4ca8 6bbe

hidden_layers.0.bias f4 [64]
0.14298351 -0.06424423 0.1354068 0.14581412 0.049751636 0.07849904 0.09736767 0.16233045
-0.11755379 0.02943911 -0.23198502 0.000845451 -0.12356783 -0.076264456 0.19152862 -0.035474475
0.42603296 0.06427161 0.037354432 0.13608666 0.058004335 -0.24274035 0.017349998 -0.08036211
0.039512053 -0.11502512 -0.30434975 -0.10935762 0.058845017 -0.014960806 0.25606668 0.30100647
0.102117695 -0.15909865 -0.08307117 0.9102636 0.49897018 -0.007380559 0.10655329 -0.068869345
0.3890676 -0.019013632 0.011184421 0.021753926 -0.5804728 0.2876867 0.07440178 0.115503505
0.1075154 -0.31874216 0.032570653 0.03700748 0.26339912 0.24730137 0.14707746 0.11631567
-0.013697876 0.18249738 0.0010474743 0.07585264 0.25444493 0.015932063 -0.13540009 0.30046394
00000000: 456a 123e 7b92 83bd 15a8 0a3e 4c50 153e
00000010: 5fc8 4b3d 1bc4 a03d b368 c73d f439 263e
00000020: 0bc0 f0bd 4a2a f13c 7b8d 6dbe 42a1 5d3a
00000030: 2111 fdbd 8a30 9cbd 1420 443e af4d 11bd
00000040: fe20 da3e d5a0 833d f600 193d 4d5a 0b3e
00000050: f495 6d3d ed90 78be 9521 8e3c e494 a4bd
00000060: 64d7 213d 4a92 ebbd bbd3 9bbe e3f6 dfbd
00000070: 7907 713d 2b1e 75bc 2c1b 833e 851d 9a3e
00000080: 1523 d13d c2ea 22be 3821 aabd 0907 693f
00000090: 0579 ff3e 9ed8 f1bb 9c38 da3d 5f0b 8dbd
000000a0: de33 c73e 7ac2 9bbc dd3e 373c 4a35 b23c
000000b0: de99 14bf ac4b 933e f65f 983d 1a8d ec3d
000000c0: 0931 dc3d 2c32 a3be ce68 053d 2895 173d
000000d0: 40dc 863e 923c 7d3e 799b 163e e936 ee3d
000000e0: 0e6d 60bc 98e0 3a3e 684b 893a a158 9b3d
000000f0: 9b46 823e f583 823c 52a6 0abe 69d6 993e

output_value.weight f4 [1, 64]
0.9347278 1.6464126 -1.3030546 -1.0883629 -1.3081647 1.9359539 -0.10424165 -0.7033373
-1.3069773 2.3237233 1.9584886 1.698701 1.8849591 -0.1144162 -0.45287296 2.1754954
-0.8887696 -0.012364706 1.8856146 2.0168836 -1.254131 3.4231875 1.7861485 0.004661837
-0.0045986134 2.138674 3.042104 -1.1640327 1.9808551 -0.02479268 1.8323568 1.7985135
-0.10475136 2.508498 1.4671061 0.7498475 -0.94484216 -0.07258252 2.178876 2.335934
-1.0448214 0.022443246 1.430776 2.1385384 1.0115287 2.9161808 1.4072192 1.5061316
-0.46122754 1.9335905 1.6928936 -0.48060557 1.0775546 -0.5477072 2.136975 -0.36619237
0.028484728 -1.0907744 0.018905964 0.025965918 -0.56980306 1.5307425 0.013142737 -0.94336814
00000000: 524a 6f3f a6bd d23f 7eca a6bf 7a4f 8bbf
00000010: f171 a7bf 56cd f73f a57c d5bd ea0d 34bf
00000020: 084b a7bf e2b7 1440 c1af fa3f 096f d93f
00000030: 5746 f13f 0a53 eabd f7de e7be 513b 0b40
00000040: 6886 63bf 5695 4abc d25b f13f 9f14 0140
00000050: 5d87 a0bf 8115 5b40 84a0 e43f 53c2 983b
00000060: f7af 96bb 09e0 0840 d5b1 4240 06ff 94bf
00000070: a98c fd3f 051a cbbc ab8a ea3f b135 e63f
00000080: e287 d6bd 3b8b 2040 22ca bb3f 01f6 3f3f
00000090: 2de1 71bf 25a6 94bd b472 0b40 f17f 1540
000000a0: b5bc 85bf e6da b73c ab23 b73f d0dd 0840
000000b0: c679 813f b5a2 3a40 c21f b43f ecc8 c03f
000000c0: 0426 ecbe e57f f73f bdb0 d83f ef11 f6be
000000d0: 4fed 893f 8a36 0cbf 33c4 0840 917d bbbe
000000e0: ce58 e93c 7f9e 8bbf aee0 9a3c 7ab6 d43c
000000f0: 9dde 11bf 5fef c33f a254 573c 9380 71bf

output_layer.weight f4 [2, 64]
0.42033997 0.2657114 0.59029925 -0.90955424 0.5296765 0.30541646 -0.13103575 -0.08656338
0.66401595 0.42839682 0.13060896 -1.5921355 0.18161367 -0.10587091 -1.1116531 0.085493125
0.61192954 -0.011415573 0.34141284 0.39978576 0.50669444 -0.3601491 0.58568937 -0.07721197
0.07899496 0.14302292 0.30291313 0.15006863 0.35232672 -0.035150547 -0.7453781 -1.974307
-0.071580656 0.16193597 0.27362785 1.1395466 0.8594445 0.06699283 -0.7331054 0.1366902
0.29753712 -0.037660234 0.29209596 0.3582452 1.4375265 -0.611981 0.39540806 -3.1448934
-1.2205697 0.040801857 0.27399242 -1.2582589 1.2444506 -0.98591274 0.43210512 -1.3136259
0.0045610494 -0.3562869 0.10963492 -0.013526507 -0.80801183 0.24318577 0.008397926 0.16750975
-0.41212723 -0.34221944 -0.619359 1.0362741 -0.6760817 -0.2540332 0.045707498 -0.0143366875
-0.59930044 -0.34603524 -0.0792813 1.4851803 -0.0016621291 -0.020730099 1.218998 -0.21320608
-0.67692506 0.08143349 -0.47491628 -0.42649126 -0.45372814 0.2879206 -0.47132826 -0.07884643
0.037859727 -0.13495442 -0.26133424 -0.33678436 -0.2747675 0.03217708 0.7621333 2.071067
0.09054715 -0.04809508 -0.36916986 -1.0607908 -0.8618411 0.09863136 0.5514939 -0.1109008
-0.35428008 -0.029326 -0.21784301 -0.40371984 -1.316711 0.61819977 -0.33097562 3.2277815
1.186833 -0.12158377 -0.30333 1.3022038 -1.276494 1.0738158 -0.4757222 1.1422676
-0.09558697 0.2095138 0.082279995 0.09572697 0.8017221 -0.2737242 0.01961554 -0.11848057
00000000: cd36 d73e 530b 883e da1d 173f 8cd8 68bf
00000010: e198 073f 8c5f 9c3e 3c2e 06be 2448 b1bd
00000020: f3fc 293f d456 db3e 5bbe 053e 19cb cbbf
00000030: eff8 393e d9d2 d8bd a64a 8ebf 0517 af3d
00000040: 6aa7 1c3f 6208 3bbc aacd ae3e b8b0 cc3e
00000050: bab6 013f 7665 b8be bdef 153f 4f21 9ebd
00000060: 1cc8 a13d 9a74 123e 6e17 9b3e 97ab 193e
00000070: 2b64 b43e 05fa 0fbd 19d1 3ebf 17b6 fcbf
00000080: e198 92bd 8bd2 253e f318 8c3e aadc 913f
00000090: 8e04 5c3f 8933 893d ccac 3bbf 84f8 0b3e
000000a0: c956 983e 9e41 1abd 9a8d 953e ea6b b73e
000000b0: de00 b83f c9aa 1cbf ed72 ca3e ef45 49c0
000000c0: a13b 9cbf d91f 273d bc48 8c3e a10e a1bf
000000d0: 284a 9f3f c764 7cbf e23c dd3e e524 a8bf
000000e0: db74 953b 3d6b b6be 4688 e03d 489e 5dbc
000000f0: ddd9 4ebf b105 793e 7497 093c ad87 2b3e
00000100: 5702 d3be 6337 afbe 508e 1ebf a1a4 843f
00000110: b113 2dbf a410 82be c937 3b3d 6de4 6abc
00000120: c16b 19bf 882b b1be 3c5e a2bd 631a be3f
00000130: ccdb d9ba 2bd2 a9bc 2008 9c3f b252 5abe
00000140: f64a 2dbf 9ac6 a63d 3a28 f3be 105d dabe
00000150: 0e4f e8be 546a 933e f051 f1be 3d7a a1bd
00000160: cd12 1b3d 7e31 0abe 9acd 85be 006f acbe
00000170: 53ae 8cbe 1dcc 033d 2b1b 433f 5d8c 0440
00000180: c970 b93d 59ff 44bd d503 bdbe fec7 87bf
00000190: 9ea1 5cbf 3dff c93d b42e 0d3f f51f e3bd
000001a0: 3364 b5be 143d f0bc 3d12 5fbe 5eb4 cebe
000001b0: fc89 a8bf 5742 1e3f a375 a9be f993 4e40
000001c0: 25ea 973f e900 f9bd 124e 9bbe 9dae a63f
000001d0: 2864 a3bf cc72 893f dc91 f3be d335 923f
000001e0: 1ac3 c3bd c98a 563e 6a82 a83d 800c c43d
000001f0: a93d 4d3f 9425 8cbe c5b0 a03c f1a5 f2bd

output_layer.bias f4 [2]
0.4616186 -0.5501178
00000000: 4659 ec3e 85d4 0cbf
