chapter_06/checkpoints/checkpoint_0.pth (torch_old, 19970 bytes, 7 tensors)

input_layer.weight f4 [64, 4]
0	0xbe50c808	-0.20388806
1	0x3c87ada0	0.016562283
2	0xbe7e4a08	-0.24832928
3	0x3e411508	0.18855679
4	0xbeda2048	-0.42602754
5	0x3ebba8c4	0.36652195
6	0xbeba1234	-0.36342013
7	0xbecb87de	-0.39752096
8	0xbea1c35a	-0.31594354
9	0x3e67e1a8	0.22644675
10	0xbe3d2e14	-0.18474609
11	0x3e3f98e4	0.18710667
12	0xbed94654	-0.4243647
13	0xbe9b523e	-0.30336183
14	0xbe3bfe80	-0.18358803
15	0xbdc93c78	-0.098259866
16	0xbec34b04	-0.3814317
17	0x3ea7a05e	0.32739538
18	0xbdf17db8	-0.11791557
19	0x3e245880	0.16049385
20	0x3eb5075c	0.35357177
21	0x3dbec700	0.093153
22	0x3e0c01bc	0.13672537
23	0x3ef71b32	0.48262936
24	0xbe66eab4	-0.2255047
25	0x3e222d38	0.15837562
26	0xbe63cc0c	-0.22245806
27	0x3eb6f348	0.35732484
28	0x3ecc74c0	0.39932823
29	0xbeec0660	-0.46098614
30	0x3eda8888	0.4268229
31	0x3e747cc4	0.2387572
32	0x3e5f1cdc	0.21788353
33	0x3e52c70c	0.20583743
34	0x3ed4d004	0.41564953
35	0xbd873560	-0.06601977
36	0xbed87fb2	-0.42284924
37	0xbe12eaf8	-0.14347446
38	0xbeb44b58	-0.35213733
39	0x3d0762f0	0.03305334
40	0xbdbf3040	-0.09335375
41	0xbe895086	-0.26819247
42	0xbd3a3500	-0.0454607
43	0x3ef2890e	0.4737019
44	0xbd218970	-0.03943771
45	0x3c820c60	0.015875041
46	0xbd9fb420	-0.07798028
47	0x3da0fae0	0.078603506
48	0x3ee41968	0.44550633
49	0x3e9c8acc	0.30574644
50	0x3e35bd84	0.17748076
51	0x3dde86a8	0.108655274
52	0x3df173b0	0.11789644
53	0x3e45cd78	0.19316661
54	0xbd845328	-0.06461173
55	0xbeededbc	-0.4647044
56	0xbe9e503e	-0.30920595
57	0x3eda8498	0.42679286
58	0x3cf4d500	0.029886723
59	0xbecf60fa	-0.40503675
60	0x3da18350	0.07886374
61	0x3ed3868a	0.41313583
62	0xbef1eb80	-0.47249985
63	0xbeac596a	-0.33661968
64	0xbe4be978	-0.1991328
65	0x3ca46740	0.020068765
66	0xbdeed3b0	-0.1166147
67	0xbd610ea0	-0.054945588
68	0xbef99266	-0.48744506
69	0x3e6fc248	0.23413956
70	0x3ee0b3c8	0.43887162
71	0x3e9c7a1e	0.30561918
72	0xbeb5482a	-0.3540662
73	0xbece5cca	-0.40305167
74	0x3e549bf4	0.20762616
75	0x3c37fb00	0.011229277
76	0x3e51e278	0.20496547
77	0xbefa2698	-0.4885757
78	0xbcf43740	-0.029811502
79	0x3eb48ada	0.35262185
80	0x3e6d85cc	0.2319557
81	0x3c959340	0.01825869
82	0x3dc95680	0.09830952
83	0xbd41e7a0	-0.047340035
84	0xbe8cc1e4	-0.27491677
85	0xbe417c04	-0.18894964
86	0xbe9be618	-0.30448985
87	0x3ed4a2ce	0.4153046
88	0x3e8cdf96	0.27514333
89	0x3e330ed8	0.17486131
90	0xbec45072	-0.38342625
91	0x3ec58902	0.3858109
92	0x3e2088ac	0.15677136
93	0x3eb11974	0.34589732
94	0xbe496a6c	-0.19669503
95	0x3dd915b8	0.10599846
96	0x3ef9f432	0.4881912
97	0x3eac3364	0.33632958
98	0x3ecd4fa8	0.40099835
99	0xbdd70640	-0.10499239
100	0x3ec30a62	0.3809386
101	0xbec881e8	-0.3916161
102	0x3d312120	0.04324448
103	0xbe90245e	-0.28152746
104	0xbdeecff8	-0.11660761
105	0xbe031f34	-0.12804872
106	0x3d193ac0	0.037409544
107	0x3ee8feea	0.45506984
108	0x3e7d7ba4	0.24754196
109	0xbb0ad000	-0.0021181107
110	0x3eb5b870	0.35492277
111	0xbe83304a	-0.2562278
112	0x3e83ef62	0.25768572
113	0xbd3deaa0	-0.046366334
114	0xbdb22fe8	-0.08700544
115	0x3d6fc430	0.05853671
116	0xbec41eea	-0.38304836
117	0x3d6ca950	0.057778656
118	0x3e2c2764	0.16811901
119	0x3edadcce	0.42746586
120	0xbe1f685c	-0.15567154
121	0x3e385588	0.18001378
122	0x3effe006	0.49975604
123	0xbe5ba1d4	-0.21448451
124	0x3ef35a06	0.4752962
125	0xbe7e3434	-0.24824601
126	0x3e61afe0	0.22039747
127	0x3e489378	0.19587505
128	0x3e0f0418	0.13966405
129	0x3eca7212	0.39540154
130	0xbe4eeea4	-0.20208222
131	0x3e069038	0.13140953
132	0x3b37e600	0.0028060675
133	0xbec08c5a	-0.3760708
134	0xbdf8a438	-0.12140697
135	0xbeaaf674	-0.33391154
136	0x3e626230	0.22107768
137	0x3d381b60	0.04494798
138	0x3d48a1b0	0.048982322
139	0xbe1b5368	-0.15168536
140	0x3b1d9100	0.0024042726
141	0xbe1f410c	-0.15552157
142	0x3e131db8	0.14366806
143	0x3ef89e94	0.48558486
144	0x3d9b1b18	0.07573527
145	0xbe62c630	-0.22145915
146	0xbe9c5f3a	-0.30541402
147	0x3d1c8c10	0.03821951
148	0xbebde9a2	-0.3709231
149	0xbec06c26	-0.3758251
150	0xbea69fe0	-0.3254385
151	0xbe2de5ec	-0.1698224
152	0x3d179680	0.037008762
153	0x3eb048da	0.3443058
154	0x3e465158	0.19366968
155	0x3ec4205c	0.38305938
156	0xbea0bde2	-0.3139487
157	0x3d2cd3b0	0.04219407
158	0xbee38db0	-0.44444036
159	0x3e92db32	0.28682858
160	0x3dd56968	0.10420495
161	0x3ef79b62	0.48360735
162	0xbeb61200	-0.35560608
163	0x3ecd4b46	0.40096492
164	0x3ed81f3a	0.42211324
165	0x3ecefb02	0.4042588
166	0x3d921e98	0.071347415
167	0x3ee8c688	0.45463967
168	0x3eaaf73c	0.3339175
169	0x3ebeff0e	0.37303966
170	0xbd050a30	-0.03248042
171	0xbec47434	-0.38369906
172	0xbbcbe200	-0.0062220097
173	0x3dc00a08	0.09376913
174	0xbeae6118	-0.34058452
175	0xbe92da04	-0.28681958
176	0xbef57068	-0.47937322
177	0xbe337af4	-0.17527372
178	0x3edefe58	0.43553424
179	0x3daf1998	0.085498035
180	0xbcfa2f20	-0.03054005
181	0x3ca47cc0	0.020079017
182	0x3e9fa0b0	0.31177282
183	0xbee21074	-0.44153178
184	0xbec586e6	-0.38579482
185	0xbe2a3990	-0.16623521
186	0xbe935528	-0.28775907
187	0x3e840a7e	0.25789255
188	0x3eb4e2a8	0.35329175
189	0xbef860b8	-0.4851129
190	0xbed94312	-0.42433983
191	0xbef94c20	-0.4869089
192	0x3e412780	0.18862724
193	0x3ece0af2	0.40242726
194	0xbec67cb0	-0.38767004
195	0xbe6d08a0	-0.23147821
196	0x3e22edd0	0.15911031
197	0xbea72a0c	-0.32649267
198	0x3ed9777e	0.42473978
199	0x3deec1d0	0.116580606
200	0xbe0e884c	-0.1391918
201	0x3d0504d0	0.032475293
202	0x3e1fa020	0.15588427
203	0xbe350cc8	-0.17680657
204	0xbec65cf4	-0.38742793
205	0x3b5c4100	0.003360808
206	0x3c153780	0.0091074705
207	0x3c253180	0.0100826025
208	0xbd956ec0	-0.072965145
209	0x3ea45eee	0.32103676
210	0xbe0ee0d8	-0.13952959
211	0xbd463b40	-0.04839635
212	0x3e528730	0.20559382
213	0xbea122ce	-0.31471866
214	0x3e0917a8	0.1338793
215	0xbde26c28	-0.110557854
216	0x3e7597c4	0.23983675
217	0xbe8adef2	-0.2712322
218	0x3c9761a0	0.018479168
219	0x3d485ac0	0.04891467
220	0xbecdfa0a	-0.40229827
221	0xbeba25fe	-0.3635711
222	0x3e445bdc	0.19175667
223	0xbe15055c	-0.14552826
224	0x3e98099c	0.2969483
225	0xbefce490	-0.4939313
226	0xbe7d18a4	-0.24716431
227	0xbed2db82	-0.41183096
228	0x3e4c8784	0.1997357
229	0xbc6d7f40	-0.014495671
230	0xbdbeff78	-0.093260705
231	0xbdaa5d40	-0.08318567
232	0xbec81a24	-0.39082444
233	0x3e11335c	0.14179748
234	0x3c4c3140	0.012462914
235	0xbeb0ab3e	-0.34505647
236	0x3e40a8c8	0.18814385
237	0xbc24a6c0	-0.010049522
238	0xbef796fc	-0.4835738
239	0x3e89b524	0.26896012
240	0x3e88ee5c	0.26744354
241	0xbdc0ee98	-0.09420508
242	0xbeb0c08e	-0.34521908
243	0x3ca47460	0.020075023
244	0x3ec12c24	0.3772899
245	0x3eea53b6	0.4576699
246	0xbec13aa4	-0.37740052
247	0xbe674128	-0.22583449
248	0x3ec753ee	0.3893122
249	0x3e7a4124	0.24438912
250	0x3e9e77a2	0.30950648
251	0xbe7ed708	-0.24886715
252	0x3edc8d86	0.43076724
253	0xbed272ea	-0.41103297
254	0xbcc54cc0	-0.024084449
255	0x3c2a1700	0.01038146

input_layer.bias f4 [64]
0	0x3dabffc0	0.0839839
1	0xbec12c6a	-0.37729198
2	0x3eeadf14	0.4587332
3	0x3efb9706	0.4913866
4	0xbeb0cba6	-0.3453037
5	0x3c974f40	0.018470407
6	0xbe885c8c	-0.26633108
7	0x3ef57976	0.4794423
8	0x3e8ec32e	0.27883285
9	0x3e96c232	0.29445034
10	0x3e252c6c	0.16130227
11	0xbd4be470	-0.0497784
12	0x3e9024dc	0.2815312
13	0x3c0b7ec0	0.008514106
14	0xbe3abbf4	-0.18235761
15	0x3e842cc6	0.2581541
16	0x3e20ab38	0.15690315
17	0xbe04aaac	-0.12955731
18	0xbe0c5114	-0.13702804
19	0xbee26414	-0.4421698
20	0xbe0c5940	-0.13705921
21	0xbe4f6b20	-0.20255709
22	0xbe8b8852	-0.27252442
23	0xbee73952	-0.4516092
24	0x3ec884c8	0.39163804
25	0xbee4c8f8	-0.44684577
26	0x3efe228a	0.49635726
27	0xbe864720	-0.2622614
28	0xbd1d6c80	-0.03843355
29	0x3ed0d478	0.407871
30	0x3e28ea24	0.16495568
31	0xbe122cf8	-0.14274967
32	0xbece1836	-0.40252846
33	0xbe51557c	-0.20442766
34	0x3ece288a	0.40265304
35	0xbe415610	-0.18880486
36	0x3ed55b12	0.41671044
37	0xbdb05988	-0.08610827
38	0xbd829828	-0.06376678
39	0x3e4c5870	0.19955611
40	0xbd9675f0	-0.073467135
41	0xbb89fb00	-0.0042108297
42	0x3eb14dc8	0.34629655
43	0x3e2b1c0c	0.16709918
44	0xbca30a00	-0.01990223
45	0x3e42fc0c	0.19041461
46	0x3edef62e	0.43547195
47	0x3e010b6c	0.12602013
48	0xbe162524	-0.14662606
49	0x3e27c488	0.16383564
50	0xbd332db0	-0.043744743
51	0xbec8259e	-0.390912
52	0xbe45b2a4	-0.19306427
53	0x3e68dd54	0.2274068
54	0x3c865320	0.016397059
55	0x3e3ce644	0.18447214
56	0xbe95d68c	-0.2926525
57	0x3ef20184	0.4726678
58	0xbe55ab4c	-0.20866126
59	0x3dda6050	0.106629014
60	0xbe7a2de0	-0.24431562
61	0xbe76f42c	-0.24116582
62	0x3e654f80	0.22393608
63	0xbe0eeb9c	-0.13957065

hidden_layers.0.weight f4 [64, 64]
0	0xbda25d3a	-0.07927938
1	0xbd5146f4	-0.051093057
2	0x3dbaace6	0.09115009
3	0x3d9a1a82	0.07524587
4	0x3d9bd40e	0.076088056
5	0xbdda7c74	-0.10668269
6	0x3d711d8c	0.05886607
7	0x3cffa708	0.031207576
8	0xbdac22b2	-0.08405055
9	0x3b817a40	0.003951341
10	0x3cccc6e0	0.024997175
11	0xbd8a4cb4	-0.06752911
12	0xbd5811ec	-0.052751467
13	0x3dd0d112	0.10196127
14	0xbc257580	-0.010098815
15	0xbaad0b80	-0.001320228
16	0xbda20578	-0.07911199
17	0xbd99140c	-0.07474527
18	0x3debb1ae	0.11508499
19	0x3d3e8ba0	0.046519876
20	0xbca21358	-0.019784614
21	0x3d9bf4b2	0.07615031
22	0xbd739338	-0.05946657
23	0xbddf50b8	-0.10904068
24	0xbdfe27a8	-0.124099076
25	0x3d500970	0.05079025
26	0xbd47a074	-0.048737004
27	0x3d9d32a6	0.07675676
28	0x3ddab2a2	0.10678603
29	0x3d28af9c	0.0411831
30	0x3ddbf2fe	0.107397065
31	0xbcebdca0	-0.028791726
32	0x3ddf147a	0.108925775
33	0xbd742260	-0.059603095
34	0xbc866058	-0.016403362
35	0x3daa21ee	0.08307253
36	0xbd84a212	-0.06476225
37	0x3dc3581c	0.0953829
38	0x3cfafe70	0.030638903
39	0xbb207a40	-0.002448693
40	0x3ddb167c	0.10697648
41	0x3dc00738	0.09376377
42	0xbd52962c	-0.051412746
43	0x3c46a500	0.0121243
44	0x3c6eaf00	0.01456809
45	0x3dd1b1dc	0.10239002
46	0x3d8fd930	0.07023847
47	0x3dcf48fc	0.101213425
48	0x3d9c111e	0.07620452
49	0xbddec09e	-0.108765826
50	0x3daa13a0	0.083045244
51	0xbd07f604	-0.033193603
52	0x3dcd63dc	0.10028812
53	0x3da117dc	0.07865879
54	0xbd95a358	-0.07306546
55	0xbc579150	-0.013157204
56	0x3c98d778	0.018657431
57	0x3d125368	0.035724074
58	0xbded1916	-0.115770504
59	0x3bb74080	0.005592406
60	0x3d85612a	0.06512673
61	0x3d908440	0.07056475
62	0x3d7bd69c	0.061483964
63	0x3ca1ec08	0.019765869
64	0xbdf5913c	-0.11990592
65	0x3da870d4	0.08224645
66	0xbdc9945c	-0.098427504
67	0xbd967332	-0.073461905
68	0x3abfad00	0.0014623702
69	0x3d1be59c	0.03806077
70	0x3d94bb46	0.07262282
71	0xbc8fce30	-0.017554373
72	0xbd83c0b4	-0.064332396
73	0xbc304ff0	-0.010761246
74	0x3d27c7a0	0.04096186
75	0xbd900498	-0.07032126
76	0xbdde58de	-0.10856794
77	0x3d7472b4	0.059679702
78	0xbda969d4	-0.08272138
79	0xbd901404	-0.07035068
80	0x3dd4606a	0.10369952
81	0xbda8b04e	-0.082367525
82	0xbdcfbd6c	-0.10143551
83	0x3dc293de	0.0950086
84	0xbd745200	-0.059648514
85	0x3c04f230	0.008114383
86	0x3dff06e2	0.12452485
87	0xbd4c4eb4	-0.049879745
88	0x3dee72bc	0.116429776
89	0x3dcb648e	0.09931289
90	0x3dc5b84e	0.09654294
91	0x3d17dd5c	0.03707634
92	0xbd66c82c	-0.056343243
93	0x3da12ea6	0.078702256
94	0xbdaf5914	-0.08561912
95	0xbd952564	-0.07282522
96	0xbd76cf8c	-0.060256526
97	0x3d5d704c	0.054062173
98	0x3c8d0928	0.01721628
99	0x3da2e002	0.07952882
100	0x3da8410a	0.0821553
101	0x3bef2d20	0.0072990805
102	0x3d9538a2	0.072861925
103	0xbdb902ba	-0.09033723
104	0xbdf4ab66	-0.11946754
105	0xbdd08fce	-0.101836786
106	0x3d8d44c2	0.0689788
107	0x3deb64ea	0.11493857
108	0xbd0d988c	-0.03456931
109	0x3d8da38c	0.0691596
110	0xbdb6ec8c	-0.089318365
111	0xbb1a98c0	-0.0023589581
112	0xba45af00	-0.00075410306
113	0xbd1439ac	-0.036187813
114	0xbd782dc0	-0.060590506
115	0x3d703478	0.058643788
116	0xbc326490	-0.010888234
117	0xbccaf180	-0.02477336
118	0x3db1d93c	0.08684012
119	0xbdc267e8	-0.09492475
120	0x3da72cb4	0.08162823
121	0x3de35ba6	0.11101465
122	0xbd9d44e0	-0.076791525
123	0xbdf28f48	-0.11843735
124	0x3c8e7130	0.017387956
125	0xbdc2b53c	-0.09507224
126	0x3d56181c	0.052269086
127	0xbdcc2b2c	-0.09969172
128	0xbdc7ceb6	-0.09756224
129	0x3d0a8038	0.033813685
130	0xbd03363c	-0.032034144
131	0xbde29b00	-0.1106472
132	0x3d47c780	0.048774242
133	0x3d34da08	0.044153243
134	0x3c89ff30	0.016845316
135	0x3da7484a	0.08168085
136	0xbd4d9144	-0.050187364
137	0x3de9a87c	0.11409089
138	0xbdc31c86	-0.09526925
139	0x3de6d41c	0.112709254
140	0x3dbe387a	0.09288116
141	0xbde3b908	-0.11119276
142	0xbc35e970	-0.011103019
143	0xbd89b75e	-0.06724428
144	0x3dfbe44a	0.12299402
145	0xbbaae440	-0.005215198
146	0x3d96cb26	0.07362966
147	0x3ddd5374	0.10806933
148	0xbdc567f4	-0.09638968
149	0x3d9b9ec8	0.075986445
150	0xbddeb04c	-0.1087347
151	0xbd0a46e4	-0.033759013
152	0xbd4e72cc	-0.050402448
153	0xbdef6e1e	-0.11690925
154	0xbdf12164	-0.11773947
155	0xbdf6d074	-0.12051478
156	0xbdc60640	-0.09669161
157	0xbd8f0b9a	-0.06984635
158	0xbd28c27c	-0.0412011
159	0x3d8f3a06	0.06993489
160	0xbca49c00	-0.020093918
161	0xbdfd7730	-0.12376249
162	0xbdb9f304	-0.09079555
163	0x3db7b8fc	0.0897083
164	0xbdf9cd66	-0.1219738
165	0xbd7bd688	-0.06148389
166	0xbde7aeb6	-0.1131262
167	0x3d89bce2	0.0672548
168	0x3daefc68	0.085442364
169	0x3c333530	0.010937974
170	0xbd80b1fc	-0.06283948
171	0xbcf840f0	-0.030304402
172	0x3beebda0	0.0072857887
173	0x3d569380	0.05238676
174	0x3b0d8380	0.0021593273
175	0xbd6eb7f8	-0.058280915
176	0x3bc66b60	0.0060552806
177	0x3b7af680	0.0038293898
178	0x3a98b700	0.0011651218
179	0x3d5eb3b8	0.054370612
180	0xbd40f580	-0.047109127
181	0x3c00fd20	0.00787285
182	0x3a0bb700	0.00053296983
183	0x3d5825e4	0.05277051
184	0xbd9cb5c0	-0.076518536
185	0xbdc824c4	-0.097726375
186	0xbdd059fa	-0.10173412
187	0x3d571b7c	0.052516446
188	0x3dcba9d2	0.099445
189	0x3dfde9b6	0.123980924
190	0x3d36d3dc	0.04463564
191	0xbcd0c588	-0.025484815
192	0x3cbc9b80	0.023023367
193	0xbdfd272c	-0.12360987
194	0x3c6c6db0	0.014430448
195	0xbd2902c8	-0.041262418
196	0xbc1b7910	-0.009489313
197	0x3d930c2a	0.071800545
198	0xbd303d88	-0.04302743
199	0xbdc1ea8a	-0.09468563
200	0x3bf76a80	0.0075505376
201	0xbd0e9384	-0.03480865
202	0xbd6ebee8	-0.05828753
203	0xbd1c6480	-0.03818178
204	0xbd9124f2	-0.07087125
205	0x3de0b49a	0.10971947
206	0x3c0ccbd0	0.008593515
207	0xbd87de10	-0.06634152
208	0x3da339b0	0.079699874
209	0x3c9e66f8	0.019336209
210	0x3d92f836	0.07176249
211	0x3dc55a82	0.096364036
212	0x3dfd0020	0.123535395
213	0xbd04a898	-0.032387346
214	0x3b72e040	0.0037059933
215	0xbd9456f2	-0.07243146
216	0x3de9924a	0.114048555
217	0x3d22f64c	0.03978567
218	0xbca98808	-0.020694748
219	0x3d004dc0	0.03132415
220	0x3dfe017e	0.12402628
221	0x3d507b90	0.05089909
222	0x3d78ade0	0.060712695
223	0x3dec5b28	0.11540824
224	0x3baf0b20	0.0053419024
225	0x3a1d1e00	0.0005993545
226	0x3cfe2698	0.031024262
227	0xbdec9976	-0.11552708
228	0x3d3301c4	0.043702856
229	0xba767200	-0.00094011426
230	0xbbc42900	-0.005986333
231	0x3beba000	0.0071907043
232	0x3de2c0b2	0.1107191
233	0x3d12ec70	0.035870016
234	0xbde7eb7e	-0.113242134
235	0x3ded2a2a	0.11580308
236	0x3d9c1f78	0.0762319
237	0x3d812ff6	0.06307976
238	0x3d534870	0.051582754
239	0x3c47c080	0.012191892
240	0xbd8d59b0	-0.06901872
241	0x3da41828	0.0801242
242	0xbdbf4c94	-0.09340778
243	0xbd9ad210	-0.075595975
244	0x39a4be00	0.0003142208
245	0xbdc6a042	-0.096985355
246	0x3de83cdc	0.11339733
247	0x3dfe55d6	0.12418716
248	0x3d7f289c	0.062294587
249	0x3d9c4232	0.07629813
250	0xbdf7faa2	-0.12108351
251	0x3ddcf0fa	0.1078815
252	0x3cb3d660	0.021952808
253	0xbda1b0fc	-0.07895085
254	0xbdb2c642	-0.08729221
255	0x3cf6d100	0.030128956

hidden_layers.0.bias f4 [64]
0	0x3c98d418	0.018655822
1	0xbc9dc568	-0.01925917
2	0x3df488ac	0.119401306
3	0x3d27760c	0.040884063
4	0x3d8f8410	0.07007611
5	0x3d5362e0	0.051607966
6	0x3dee7cd0	0.116449
7	0x3de7675e	0.112990126
8	0xbdf80a36	-0.121113226
9	0x3d37c070	0.044861257
10	0xbd29eb1c	-0.041483983
11	0xbbfa8080	-0.007644713
12	0x3da3d0b0	0.07998788
13	0xbd87b9bc	-0.06627223
14	0xbd3a09cc	-0.0454195
15	0xbc86a6f8	-0.016437039
16	0xbdefaca6	-0.11702852
17	0x3db186d8	0.086682975
18	0xbcbc93a8	-0.023019627
19	0x3d95bf7e	0.07311915
20	0x3d0e3ebc	0.034727797
21	0x3dc10bb2	0.09426059
22	0xbdad8864	-0.0847328
23	0xbd901a7e	-0.07036303
24	0x3d365218	0.044511884
25	0x3d4be564	0.04977931
26	0x3d16bbf8	0.036800355
27	0xbdb428d8	-0.08796853
28	0x3d214f0c	0.039382026
29	0x3ce2c5d8	0.02768223
30	0x3d90e0f8	0.070741594
31	0x3d8747e2	0.066055074
32	0x3df18836	0.11793558
33	0x3d4812f0	0.048846185
34	0xbd4dab74	-0.05021234
35	0x3dddd5fc	0.1083183
36	0xbd6f729c	-0.05845891
37	0x3b586700	0.0033020377
38	0xbdc965d6	-0.09833877
39	0xbd884164	-0.06653097
40	0x3d315454	0.043293312
41	0xbc659d90	-0.014014617
42	0x3da1e0ca	0.07904203
43	0x3c319540	0.010838807
44	0xbdd9cdc4	-0.1063495
45	0x3d232618	0.03983125
46	0x3dbae3d8	0.09125489
47	0xbd06f2f8	-0.032946557
48	0xbd251284	-0.04030086
49	0xbdd5c77a	-0.10438438
50	0x3dcad16a	0.09903224
51	0xbdacbbca	-0.084342554
52	0x3c839640	0.016062856
53	0x3dd4d38a	0.103919104
54	0x3c8ef018	0.01744847
55	0xbde07608	-0.10960013
56	0xbc0e8190	-0.008697882
57	0xbde858a8	-0.11345035
58	0xbbc68c60	-0.0060592145
59	0x3de92428	0.113838494
60	0x3bd02680	0.006352246
61	0x3d8cbbce	0.068717584
62	0xbdec5726	-0.1154006
63	0x3d8ef3d0	0.06980097

output_value.weight f4 [1, 64]
0	0x3cad03d8	0.021119997
1	0x3d3af1cc	0.04564075
2	0xbd3afb44	-0.04564978
3	0xbdd2a2f2	-0.102849856
4	0xbd2c9284	-0.042131916
5	0xb9e1e600	-0.00043086708
6	0xbdeff772	-0.11717118
7	0xbd9992bc	-0.074986905
8	0xbddb775a	-0.10716124
9	0x3df167f4	0.117874056
10	0x3d851602	0.06498338
11	0xbd20d6f0	-0.03926748
12	0x3b870760	0.004120752
13	0xbdfd6e62	-0.123745695
14	0xbc89a688	-0.016803041
15	0x3c994028	0.01870735
16	0xbdabbe0c	-0.08385858
17	0xbcf24da8	-0.029578045
18	0x3c9fdca8	0.019514397
19	0x3da1551a	0.0787756
20	0x3c7a3ee0	0.01527378
21	0x3d971b16	0.07378213
22	0x3da0b082	0.07846166
23	0x3b98be60	0.0046613663
24	0xbc1d4130	-0.009598061
25	0x3daec3a2	0.08533408
26	0x3c4f2990	0.012644187
27	0xbddd7dc6	-0.10815005
28	0x3db61d1c	0.08892271
29	0xbd5e5a70	-0.054285467
30	0x3b859120	0.004076138
31	0xbcf99a30	-0.03046903
32	0xbdee8662	-0.11646725
33	0x3d6bb7b4	0.05754824
34	0x3d9a0bf4	0.07521811
35	0xbccb8cf8	-0.024847493
36	0xbde483d0	-0.11157954
37	0xbda9366e	-0.08262335
38	0xbc445500	-0.011983156
39	0x3dfc9b16	0.12334268
40	0xbdcdda56	-0.1005141
41	0x3ce08340	0.027406335
42	0xbb406380	-0.0029356182
43	0xbb221980	-0.0024734437
44	0x392aa400	0.00016273558
45	0x3d40ed20	0.04710114
46	0x3dbb9f42	0.091612354
47	0x3dccac02	0.099937454
48	0xbdec6d2e	-0.11544262
49	0x3d5f52f8	0.054522485
50	0x3dca2d62	0.09871937
51	0xbdd07b3c	-0.10179755
52	0xbdc29a9a	-0.09502144
53	0xbdd1d646	-0.102459475
54	0x3dde3104	0.10849193
55	0xbdab5e96	-0.0836765
56	0x3d092714	0.033484533
57	0xbdfeab2c	-0.12434992
58	0x3c4568a0	0.01204887
59	0xbcc39060	-0.023872554
60	0xbd5aafbc	-0.05339025
61	0xbb52edc0	-0.0032185167
62	0x3cbd96e0	0.023143232
63	0xbd41cdb4	-0.047315314

output_layer.weight f4 [2, 64]
0	0x3db7afae	0.08969055
1	0xbb6bf180	-0.00360021
2	0xbc11dc80	-0.008902669
3	0x3c383710	0.011243597
4	0xbd435ba0	-0.047694802
5	0xbba8fec0	-0.0051573217
6	0xbdf356e2	-0.11881806
7	0xbde37b82	-0.111075416
8	0x3cfdf930	0.03100261
9	0x3d5ec4d8	0.054386944
10	0xbcc4f800	-0.024044037
11	0x3bbb7920	0.0057212263
12	0x3d64a0a8	0.055817276
13	0xbdc6c3ee	-0.09705339
14	0x3def7514	0.11692253
15	0xbdd1adf2	-0.102382556
16	0xbbee1cc0	-0.007266611
17	0xbc8668a8	-0.016407326
18	0xbda8dd02	-0.08245279
19	0xbc1716e0	-0.009221762
20	0xbd039984	-0.032128826
21	0xbdf9a09a	-0.121888354
22	0x3d852f94	0.065032154
23	0xbd9e21ce	-0.077212915
24	0x3dac04f8	0.08399385
25	0xbcd3f430	-0.025873274
26	0xbc2be9d0	-0.010492757
27	0xbd86263e	-0.06550263
28	0x3cb94090	0.022613794
29	0xbce925e0	-0.028460443
30	0xbd8def62	-0.06930424
31	0xbc352020	-0.0110550225
32	0xbd7730f8	-0.060349435
33	0xbb35e300	-0.002775371
34	0x3cf04ab8	0.029332504
35	0x3dd4acbc	0.10384509
36	0x3dee7f4e	0.11645375
37	0x3d894df2	0.0670432
38	0xbdc84c7c	-0.09780213
39	0xbdb7a398	-0.0896675
40	0x3d020fc0	0.0317533
41	0xbd2e6fa8	-0.042586952
42	0x3d5e5c08	0.054286987
43	0xbd3bbe98	-0.04583606
44	0x3df851ec	0.12125
45	0xbdcfd948	-0.10148865
46	0x3ddaf6b8	0.10691589
47	0x3be9e8e0	0.0071383566
48	0xbda928ee	-0.0825976
49	0xbde34c14	-0.11098495
50	0x3cff0ca0	0.03113395
51	0xbd4cac48	-0.049968988
52	0x3ccfba68	0.02535744
53	0xbc8f4b40	-0.017491937
54	0xbd3e7100	-0.046494484
55	0xbd8a5b06	-0.067556426
56	0x3c1ca450	0.0095606595
57	0xbd8c3036	-0.06845133
58	0x3db7c3ec	0.08972916
59	0x3d019418	0.031635374
60	0xbcd78588	-0.02630879
61	0xbc3a7cf0	-0.0113823265
62	0xbc3e1270	-0.0116010755
63	0x3d370e90	0.044691622
64	0xbda6ddb6	-0.08147757
65	0xbd95511e	-0.072908625
66	0xbca51e40	-0.020156026
67	0x3dec812a	0.115480736
68	0xbdca2818	-0.098709285
69	0x3d67961c	0.05653964
70	0x3d092c9c	0.03348981
71	0x3c26b5d0	0.010175183
72	0x3d0a186c	0.033714697
73	0x3ce52868	0.027973369
74	0x3d9a5c60	0.075371504
75	0xbde6c382	-0.11267759
76	0x3dfe3a2c	0.12413439
77	0xbcf20dd8	-0.029547617
78	0xbc1ce3e0	-0.009575814
79	0xbccf8200	-0.025330544
80	0xbd6c743c	-0.057728037
81	0x3db0ffb8	0.086425245
82	0xbd511dc0	-0.051053762
83	0xbc8f3a70	-0.01748392
84	0x3dae465a	0.08509512
85	0x3d4b6694	0.049658373
86	0x3d4a14f8	0.049336404
87	0xbda179be	-0.078845486
88	0x3d069914	0.03286083
89	0x3d0b0628	0.033941418
90	0x3d5549e4	0.05207242
91	0xbdf83d92	-0.121211186
92	0x3d610e48	0.05494526
93	0x3cd0ca10	0.025486976
94	0x3db03ff6	0.086059496
95	0x3ddcd760	0.10783267
96	0x3da27064	0.07931593
97	0x3deed3ec	0.11661515
98	0xbdffbe30	-0.12487447
99	0xbccd73a0	-0.025079548
100	0xbdf36812	-0.11885084
101	0x3dc9e4d4	0.098580986
102	0xbdaba37c	-0.083807915
103	0x3dec74c8	0.11545712
104	0xbdb53ca0	-0.08849454
105	0xbcc7e100	-0.02439928
106	0x3ca39440	0.019968152
107	0x39bd9e00	0.00036166608
108	0xb9e38c00	-0.00043401122
109	0x3ddc95fa	0.10770793
110	0xbd2e035c	-0.042483672
111	0x3d9b25ba	0.07575555
112	0x3d48222c	0.048860714
113	0x3cf76cb0	0.030203193
114	0xbd77af74	-0.06047006
115	0x3dc05246	0.093906924
116	0xbd6b1cb8	-0.057400435
117	0x3dd7d9e8	0.10539609
118	0x3b3c91c0	0.0028773397
119	0xbdd4969c	-0.10380289
120	0xbdce0056	-0.10058658
121	0xbda0671a	-0.07832165
122	0x3dd146c4	0.102185756
123	0x3d4f1d40	0.050565004
124	0x3ca3fe60	0.020018756
125	0xbc9cee08	-0.01915647
126	0x3d2242dc	0.039614543
127	0x3b8e23c0	0.004337758

output_layer.bias f4 [2]
0	0xbd9e6f74	-0.07736102
1	0xbc368340	-0.011139691
